<?xml version="1.0"?>
<net name="torch-jit-export" version="11">
	<layers>
		<layer id="0" name="image" type="Parameter" version="opset1">
			<data shape="1,3,288,288" element_type="f32" />
			<rt_info>
				<attribute name="old_api_map_element_type" version="0" value="f16" />
			</rt_info>
			<output>
				<port id="0" precision="FP32" names="image">
					<dim>1</dim>
					<dim>3</dim>
					<dim>288</dim>
					<dim>288</dim>
					<rt_info>
						<attribute name="layout" version="0" layout="[N,C,H,W]" />
					</rt_info>
				</port>
			</output>
		</layer>
		<layer id="1" name="Gather_75981_compressed" type="Const" version="opset1">
			<data element_type="f16" shape="1, 3, 1, 1" offset="0" size="6" />
			<output>
				<port id="0" precision="FP16">
					<dim>1</dim>
					<dim>3</dim>
					<dim>1</dim>
					<dim>1</dim>
				</port>
			</output>
		</layer>
		<layer id="2" name="Gather_75981" type="Convert" version="opset1">
			<data destination_type="f32" />
			<rt_info>
				<attribute name="decompression" version="0" />
			</rt_info>
			<input>
				<port id="0" precision="FP16">
					<dim>1</dim>
					<dim>3</dim>
					<dim>1</dim>
					<dim>1</dim>
				</port>
			</input>
			<output>
				<port id="1" precision="FP32">
					<dim>1</dim>
					<dim>3</dim>
					<dim>1</dim>
					<dim>1</dim>
				</port>
			</output>
		</layer>
		<layer id="3" name="Subtract_9189" type="Subtract" version="opset1">
			<data auto_broadcast="numpy" />
			<rt_info>
				<attribute name="preprocessing" version="0" />
			</rt_info>
			<input>
				<port id="0" precision="FP32">
					<dim>1</dim>
					<dim>3</dim>
					<dim>288</dim>
					<dim>288</dim>
				</port>
				<port id="1" precision="FP32">
					<dim>1</dim>
					<dim>3</dim>
					<dim>1</dim>
					<dim>1</dim>
				</port>
			</input>
			<output>
				<port id="2" precision="FP32">
					<dim>1</dim>
					<dim>3</dim>
					<dim>288</dim>
					<dim>288</dim>
				</port>
			</output>
		</layer>
		<layer id="4" name="Gather_75984_compressed" type="Const" version="opset1">
			<data element_type="f16" shape="24, 3, 3, 3" offset="6" size="1296" />
			<output>
				<port id="0" precision="FP16">
					<dim>24</dim>
					<dim>3</dim>
					<dim>3</dim>
					<dim>3</dim>
				</port>
			</output>
		</layer>
		<layer id="5" name="Gather_75984" type="Convert" version="opset1">
			<data destination_type="f32" />
			<rt_info>
				<attribute name="decompression" version="0" />
			</rt_info>
			<input>
				<port id="0" precision="FP16">
					<dim>24</dim>
					<dim>3</dim>
					<dim>3</dim>
					<dim>3</dim>
				</port>
			</input>
			<output>
				<port id="1" precision="FP32">
					<dim>24</dim>
					<dim>3</dim>
					<dim>3</dim>
					<dim>3</dim>
				</port>
			</output>
		</layer>
		<layer id="6" name="Multiply_67749" type="Convolution" version="opset1">
			<data strides="2, 2" dilations="1, 1" pads_begin="1, 1" pads_end="1, 1" auto_pad="explicit" />
			<rt_info>
				<attribute name="preprocessing" version="0" />
			</rt_info>
			<input>
				<port id="0" precision="FP32">
					<dim>1</dim>
					<dim>3</dim>
					<dim>288</dim>
					<dim>288</dim>
				</port>
				<port id="1" precision="FP32">
					<dim>24</dim>
					<dim>3</dim>
					<dim>3</dim>
					<dim>3</dim>
				</port>
			</input>
			<output>
				<port id="2" precision="FP32">
					<dim>1</dim>
					<dim>24</dim>
					<dim>144</dim>
					<dim>144</dim>
				</port>
			</output>
		</layer>
		<layer id="7" name="Constant_67754_compressed" type="Const" version="opset1">
			<data element_type="f16" shape="1, 24, 1, 1" offset="1302" size="48" />
			<output>
				<port id="0" precision="FP16">
					<dim>1</dim>
					<dim>24</dim>
					<dim>1</dim>
					<dim>1</dim>
				</port>
			</output>
		</layer>
		<layer id="8" name="Constant_67754" type="Convert" version="opset1">
			<data destination_type="f32" />
			<rt_info>
				<attribute name="decompression" version="0" />
			</rt_info>
			<input>
				<port id="0" precision="FP16">
					<dim>1</dim>
					<dim>24</dim>
					<dim>1</dim>
					<dim>1</dim>
				</port>
			</input>
			<output>
				<port id="1" precision="FP32">
					<dim>1</dim>
					<dim>24</dim>
					<dim>1</dim>
					<dim>1</dim>
				</port>
			</output>
		</layer>
		<layer id="9" name="BatchNormalization_1" type="Add" version="opset1">
			<data auto_broadcast="numpy" />
			<input>
				<port id="0" precision="FP32">
					<dim>1</dim>
					<dim>24</dim>
					<dim>144</dim>
					<dim>144</dim>
				</port>
				<port id="1" precision="FP32">
					<dim>1</dim>
					<dim>24</dim>
					<dim>1</dim>
					<dim>1</dim>
				</port>
			</input>
			<output>
				<port id="2" precision="FP32" names="1250">
					<dim>1</dim>
					<dim>24</dim>
					<dim>144</dim>
					<dim>144</dim>
				</port>
			</output>
		</layer>
		<layer id="10" name="Mul_3" type="Swish" version="opset4">
			<input>
				<port id="0" precision="FP32">
					<dim>1</dim>
					<dim>24</dim>
					<dim>144</dim>
					<dim>144</dim>
				</port>
			</input>
			<output>
				<port id="1" precision="FP32" names="1252">
					<dim>1</dim>
					<dim>24</dim>
					<dim>144</dim>
					<dim>144</dim>
				</port>
			</output>
		</layer>
		<layer id="11" name="Multiply_69052_compressed" type="Const" version="opset1">
			<data element_type="f16" shape="24, 1, 1, 3, 3" offset="1350" size="432" />
			<output>
				<port id="0" precision="FP16">
					<dim>24</dim>
					<dim>1</dim>
					<dim>1</dim>
					<dim>3</dim>
					<dim>3</dim>
				</port>
			</output>
		</layer>
		<layer id="12" name="Multiply_69052" type="Convert" version="opset1">
			<data destination_type="f32" />
			<rt_info>
				<attribute name="decompression" version="0" />
			</rt_info>
			<input>
				<port id="0" precision="FP16">
					<dim>24</dim>
					<dim>1</dim>
					<dim>1</dim>
					<dim>3</dim>
					<dim>3</dim>
				</port>
			</input>
			<output>
				<port id="1" precision="FP32">
					<dim>24</dim>
					<dim>1</dim>
					<dim>1</dim>
					<dim>3</dim>
					<dim>3</dim>
				</port>
			</output>
		</layer>
		<layer id="13" name="Multiply_67756" type="GroupConvolution" version="opset1">
			<data strides="1, 1" pads_begin="1, 1" pads_end="1, 1" dilations="1, 1" auto_pad="explicit" />
			<input>
				<port id="0" precision="FP32">
					<dim>1</dim>
					<dim>24</dim>
					<dim>144</dim>
					<dim>144</dim>
				</port>
				<port id="1" precision="FP32">
					<dim>24</dim>
					<dim>1</dim>
					<dim>1</dim>
					<dim>3</dim>
					<dim>3</dim>
				</port>
			</input>
			<output>
				<port id="2" precision="FP32" names="1253">
					<dim>1</dim>
					<dim>24</dim>
					<dim>144</dim>
					<dim>144</dim>
				</port>
			</output>
		</layer>
		<layer id="14" name="Constant_67761_compressed" type="Const" version="opset1">
			<data element_type="f16" shape="1, 24, 1, 1" offset="1782" size="48" />
			<output>
				<port id="0" precision="FP16">
					<dim>1</dim>
					<dim>24</dim>
					<dim>1</dim>
					<dim>1</dim>
				</port>
			</output>
		</layer>
		<layer id="15" name="Constant_67761" type="Convert" version="opset1">
			<data destination_type="f32" />
			<rt_info>
				<attribute name="decompression" version="0" />
			</rt_info>
			<input>
				<port id="0" precision="FP16">
					<dim>1</dim>
					<dim>24</dim>
					<dim>1</dim>
					<dim>1</dim>
				</port>
			</input>
			<output>
				<port id="1" precision="FP32">
					<dim>1</dim>
					<dim>24</dim>
					<dim>1</dim>
					<dim>1</dim>
				</port>
			</output>
		</layer>
		<layer id="16" name="BatchNormalization_5" type="Add" version="opset1">
			<data auto_broadcast="numpy" />
			<input>
				<port id="0" precision="FP32">
					<dim>1</dim>
					<dim>24</dim>
					<dim>144</dim>
					<dim>144</dim>
				</port>
				<port id="1" precision="FP32">
					<dim>1</dim>
					<dim>24</dim>
					<dim>1</dim>
					<dim>1</dim>
				</port>
			</input>
			<output>
				<port id="2" precision="FP32" names="1254">
					<dim>1</dim>
					<dim>24</dim>
					<dim>144</dim>
					<dim>144</dim>
				</port>
			</output>
		</layer>
		<layer id="17" name="Mul_7" type="Swish" version="opset4">
			<input>
				<port id="0" precision="FP32">
					<dim>1</dim>
					<dim>24</dim>
					<dim>144</dim>
					<dim>144</dim>
				</port>
			</input>
			<output>
				<port id="1" precision="FP32" names="1256">
					<dim>1</dim>
					<dim>24</dim>
					<dim>144</dim>
					<dim>144</dim>
				</port>
			</output>
		</layer>
		<layer id="18" name="Range_1071" type="Const" version="opset1">
			<data element_type="i64" shape="2" offset="1830" size="16" />
			<output>
				<port id="0" precision="I64">
					<dim>2</dim>
				</port>
			</output>
		</layer>
		<layer id="19" name="GlobalAveragePool_8" type="ReduceMean" version="opset1">
			<data keep_dims="true" />
			<input>
				<port id="0" precision="FP32">
					<dim>1</dim>
					<dim>24</dim>
					<dim>144</dim>
					<dim>144</dim>
				</port>
				<port id="1" precision="I64">
					<dim>2</dim>
				</port>
			</input>
			<output>
				<port id="2" precision="FP32" names="1257">
					<dim>1</dim>
					<dim>24</dim>
					<dim>1</dim>
					<dim>1</dim>
				</port>
			</output>
		</layer>
		<layer id="20" name="backbone.module.features.stage1.unit1.se.conv1.weight_compressed" type="Const" version="opset1">
			<data element_type="f16" shape="6, 24, 1, 1" offset="1846" size="288" />
			<output>
				<port id="0" precision="FP16">
					<dim>6</dim>
					<dim>24</dim>
					<dim>1</dim>
					<dim>1</dim>
				</port>
			</output>
		</layer>
		<layer id="21" name="backbone.module.features.stage1.unit1.se.conv1.weight" type="Convert" version="opset1">
			<data destination_type="f32" />
			<rt_info>
				<attribute name="decompression" version="0" />
			</rt_info>
			<input>
				<port id="0" precision="FP16">
					<dim>6</dim>
					<dim>24</dim>
					<dim>1</dim>
					<dim>1</dim>
				</port>
			</input>
			<output>
				<port id="1" precision="FP32" names="backbone.module.features.stage1.unit1.se.conv1.weight">
					<dim>6</dim>
					<dim>24</dim>
					<dim>1</dim>
					<dim>1</dim>
				</port>
			</output>
		</layer>
		<layer id="22" name="Conv_9/WithoutBiases" type="Convolution" version="opset1">
			<data strides="1, 1" dilations="1, 1" pads_begin="0, 0" pads_end="0, 0" auto_pad="explicit" />
			<input>
				<port id="0" precision="FP32">
					<dim>1</dim>
					<dim>24</dim>
					<dim>1</dim>
					<dim>1</dim>
				</port>
				<port id="1" precision="FP32">
					<dim>6</dim>
					<dim>24</dim>
					<dim>1</dim>
					<dim>1</dim>
				</port>
			</input>
			<output>
				<port id="2" precision="FP32">
					<dim>1</dim>
					<dim>6</dim>
					<dim>1</dim>
					<dim>1</dim>
				</port>
			</output>
		</layer>
		<layer id="23" name="Reshape_1116_compressed" type="Const" version="opset1">
			<data element_type="f16" shape="1, 6, 1, 1" offset="2134" size="12" />
			<output>
				<port id="0" precision="FP16">
					<dim>1</dim>
					<dim>6</dim>
					<dim>1</dim>
					<dim>1</dim>
				</port>
			</output>
		</layer>
		<layer id="24" name="Reshape_1116" type="Convert" version="opset1">
			<data destination_type="f32" />
			<rt_info>
				<attribute name="decompression" version="0" />
			</rt_info>
			<input>
				<port id="0" precision="FP16">
					<dim>1</dim>
					<dim>6</dim>
					<dim>1</dim>
					<dim>1</dim>
				</port>
			</input>
			<output>
				<port id="1" precision="FP32">
					<dim>1</dim>
					<dim>6</dim>
					<dim>1</dim>
					<dim>1</dim>
				</port>
			</output>
		</layer>
		<layer id="25" name="Conv_9" type="Add" version="opset1">
			<data auto_broadcast="numpy" />
			<input>
				<port id="0" precision="FP32">
					<dim>1</dim>
					<dim>6</dim>
					<dim>1</dim>
					<dim>1</dim>
				</port>
				<port id="1" precision="FP32">
					<dim>1</dim>
					<dim>6</dim>
					<dim>1</dim>
					<dim>1</dim>
				</port>
			</input>
			<output>
				<port id="2" precision="FP32" names="1258">
					<dim>1</dim>
					<dim>6</dim>
					<dim>1</dim>
					<dim>1</dim>
				</port>
			</output>
		</layer>
		<layer id="26" name="Mul_11" type="Swish" version="opset4">
			<input>
				<port id="0" precision="FP32">
					<dim>1</dim>
					<dim>6</dim>
					<dim>1</dim>
					<dim>1</dim>
				</port>
			</input>
			<output>
				<port id="1" precision="FP32" names="1260">
					<dim>1</dim>
					<dim>6</dim>
					<dim>1</dim>
					<dim>1</dim>
				</port>
			</output>
		</layer>
		<layer id="27" name="backbone.module.features.stage1.unit1.se.conv2.weight_compressed" type="Const" version="opset1">
			<data element_type="f16" shape="24, 6, 1, 1" offset="2146" size="288" />
			<output>
				<port id="0" precision="FP16">
					<dim>24</dim>
					<dim>6</dim>
					<dim>1</dim>
					<dim>1</dim>
				</port>
			</output>
		</layer>
		<layer id="28" name="backbone.module.features.stage1.unit1.se.conv2.weight" type="Convert" version="opset1">
			<data destination_type="f32" />
			<rt_info>
				<attribute name="decompression" version="0" />
			</rt_info>
			<input>
				<port id="0" precision="FP16">
					<dim>24</dim>
					<dim>6</dim>
					<dim>1</dim>
					<dim>1</dim>
				</port>
			</input>
			<output>
				<port id="1" precision="FP32" names="backbone.module.features.stage1.unit1.se.conv2.weight">
					<dim>24</dim>
					<dim>6</dim>
					<dim>1</dim>
					<dim>1</dim>
				</port>
			</output>
		</layer>
		<layer id="29" name="Conv_12/WithoutBiases" type="Convolution" version="opset1">
			<data strides="1, 1" dilations="1, 1" pads_begin="0, 0" pads_end="0, 0" auto_pad="explicit" />
			<input>
				<port id="0" precision="FP32">
					<dim>1</dim>
					<dim>6</dim>
					<dim>1</dim>
					<dim>1</dim>
				</port>
				<port id="1" precision="FP32">
					<dim>24</dim>
					<dim>6</dim>
					<dim>1</dim>
					<dim>1</dim>
				</port>
			</input>
			<output>
				<port id="2" precision="FP32">
					<dim>1</dim>
					<dim>24</dim>
					<dim>1</dim>
					<dim>1</dim>
				</port>
			</output>
		</layer>
		<layer id="30" name="Reshape_1166_compressed" type="Const" version="opset1">
			<data element_type="f16" shape="1, 24, 1, 1" offset="2434" size="48" />
			<output>
				<port id="0" precision="FP16">
					<dim>1</dim>
					<dim>24</dim>
					<dim>1</dim>
					<dim>1</dim>
				</port>
			</output>
		</layer>
		<layer id="31" name="Reshape_1166" type="Convert" version="opset1">
			<data destination_type="f32" />
			<rt_info>
				<attribute name="decompression" version="0" />
			</rt_info>
			<input>
				<port id="0" precision="FP16">
					<dim>1</dim>
					<dim>24</dim>
					<dim>1</dim>
					<dim>1</dim>
				</port>
			</input>
			<output>
				<port id="1" precision="FP32">
					<dim>1</dim>
					<dim>24</dim>
					<dim>1</dim>
					<dim>1</dim>
				</port>
			</output>
		</layer>
		<layer id="32" name="Conv_12" type="Add" version="opset1">
			<data auto_broadcast="numpy" />
			<input>
				<port id="0" precision="FP32">
					<dim>1</dim>
					<dim>24</dim>
					<dim>1</dim>
					<dim>1</dim>
				</port>
				<port id="1" precision="FP32">
					<dim>1</dim>
					<dim>24</dim>
					<dim>1</dim>
					<dim>1</dim>
				</port>
			</input>
			<output>
				<port id="2" precision="FP32" names="1261">
					<dim>1</dim>
					<dim>24</dim>
					<dim>1</dim>
					<dim>1</dim>
				</port>
			</output>
		</layer>
		<layer id="33" name="Sigmoid_13" type="Sigmoid" version="opset1">
			<input>
				<port id="0" precision="FP32">
					<dim>1</dim>
					<dim>24</dim>
					<dim>1</dim>
					<dim>1</dim>
				</port>
			</input>
			<output>
				<port id="1" precision="FP32" names="1262">
					<dim>1</dim>
					<dim>24</dim>
					<dim>1</dim>
					<dim>1</dim>
				</port>
			</output>
		</layer>
		<layer id="34" name="Mul_14" type="Multiply" version="opset1">
			<data auto_broadcast="numpy" />
			<input>
				<port id="0" precision="FP32">
					<dim>1</dim>
					<dim>24</dim>
					<dim>144</dim>
					<dim>144</dim>
				</port>
				<port id="1" precision="FP32">
					<dim>1</dim>
					<dim>24</dim>
					<dim>1</dim>
					<dim>1</dim>
				</port>
			</input>
			<output>
				<port id="2" precision="FP32" names="1263">
					<dim>1</dim>
					<dim>24</dim>
					<dim>144</dim>
					<dim>144</dim>
				</port>
			</output>
		</layer>
		<layer id="35" name="Multiply_69060_compressed" type="Const" version="opset1">
			<data element_type="f16" shape="16, 24, 1, 1" offset="2482" size="768" />
			<output>
				<port id="0" precision="FP16">
					<dim>16</dim>
					<dim>24</dim>
					<dim>1</dim>
					<dim>1</dim>
				</port>
			</output>
		</layer>
		<layer id="36" name="Multiply_69060" type="Convert" version="opset1">
			<data destination_type="f32" />
			<rt_info>
				<attribute name="decompression" version="0" />
			</rt_info>
			<input>
				<port id="0" precision="FP16">
					<dim>16</dim>
					<dim>24</dim>
					<dim>1</dim>
					<dim>1</dim>
				</port>
			</input>
			<output>
				<port id="1" precision="FP32">
					<dim>16</dim>
					<dim>24</dim>
					<dim>1</dim>
					<dim>1</dim>
				</port>
			</output>
		</layer>
		<layer id="37" name="Multiply_67763" type="Convolution" version="opset1">
			<data strides="1, 1" dilations="1, 1" pads_begin="0, 0" pads_end="0, 0" auto_pad="explicit" />
			<input>
				<port id="0" precision="FP32">
					<dim>1</dim>
					<dim>24</dim>
					<dim>144</dim>
					<dim>144</dim>
				</port>
				<port id="1" precision="FP32">
					<dim>16</dim>
					<dim>24</dim>
					<dim>1</dim>
					<dim>1</dim>
				</port>
			</input>
			<output>
				<port id="2" precision="FP32">
					<dim>1</dim>
					<dim>16</dim>
					<dim>144</dim>
					<dim>144</dim>
				</port>
			</output>
		</layer>
		<layer id="38" name="Constant_67768_compressed" type="Const" version="opset1">
			<data element_type="f16" shape="1, 16, 1, 1" offset="3250" size="32" />
			<output>
				<port id="0" precision="FP16">
					<dim>1</dim>
					<dim>16</dim>
					<dim>1</dim>
					<dim>1</dim>
				</port>
			</output>
		</layer>
		<layer id="39" name="Constant_67768" type="Convert" version="opset1">
			<data destination_type="f32" />
			<rt_info>
				<attribute name="decompression" version="0" />
			</rt_info>
			<input>
				<port id="0" precision="FP16">
					<dim>1</dim>
					<dim>16</dim>
					<dim>1</dim>
					<dim>1</dim>
				</port>
			</input>
			<output>
				<port id="1" precision="FP32">
					<dim>1</dim>
					<dim>16</dim>
					<dim>1</dim>
					<dim>1</dim>
				</port>
			</output>
		</layer>
		<layer id="40" name="BatchNormalization_16" type="Add" version="opset1">
			<data auto_broadcast="numpy" />
			<input>
				<port id="0" precision="FP32">
					<dim>1</dim>
					<dim>16</dim>
					<dim>144</dim>
					<dim>144</dim>
				</port>
				<port id="1" precision="FP32">
					<dim>1</dim>
					<dim>16</dim>
					<dim>1</dim>
					<dim>1</dim>
				</port>
			</input>
			<output>
				<port id="2" precision="FP32" names="1265">
					<dim>1</dim>
					<dim>16</dim>
					<dim>144</dim>
					<dim>144</dim>
				</port>
			</output>
		</layer>
		<layer id="41" name="Multiply_69069_compressed" type="Const" version="opset1">
			<data element_type="f16" shape="96, 16, 1, 1" offset="3282" size="3072" />
			<output>
				<port id="0" precision="FP16">
					<dim>96</dim>
					<dim>16</dim>
					<dim>1</dim>
					<dim>1</dim>
				</port>
			</output>
		</layer>
		<layer id="42" name="Multiply_69069" type="Convert" version="opset1">
			<data destination_type="f32" />
			<rt_info>
				<attribute name="decompression" version="0" />
			</rt_info>
			<input>
				<port id="0" precision="FP16">
					<dim>96</dim>
					<dim>16</dim>
					<dim>1</dim>
					<dim>1</dim>
				</port>
			</input>
			<output>
				<port id="1" precision="FP32">
					<dim>96</dim>
					<dim>16</dim>
					<dim>1</dim>
					<dim>1</dim>
				</port>
			</output>
		</layer>
		<layer id="43" name="Multiply_67770" type="Convolution" version="opset1">
			<data strides="1, 1" dilations="1, 1" pads_begin="0, 0" pads_end="0, 0" auto_pad="explicit" />
			<input>
				<port id="0" precision="FP32">
					<dim>1</dim>
					<dim>16</dim>
					<dim>144</dim>
					<dim>144</dim>
				</port>
				<port id="1" precision="FP32">
					<dim>96</dim>
					<dim>16</dim>
					<dim>1</dim>
					<dim>1</dim>
				</port>
			</input>
			<output>
				<port id="2" precision="FP32">
					<dim>1</dim>
					<dim>96</dim>
					<dim>144</dim>
					<dim>144</dim>
				</port>
			</output>
		</layer>
		<layer id="44" name="Constant_67775_compressed" type="Const" version="opset1">
			<data element_type="f16" shape="1, 96, 1, 1" offset="6354" size="192" />
			<output>
				<port id="0" precision="FP16">
					<dim>1</dim>
					<dim>96</dim>
					<dim>1</dim>
					<dim>1</dim>
				</port>
			</output>
		</layer>
		<layer id="45" name="Constant_67775" type="Convert" version="opset1">
			<data destination_type="f32" />
			<rt_info>
				<attribute name="decompression" version="0" />
			</rt_info>
			<input>
				<port id="0" precision="FP16">
					<dim>1</dim>
					<dim>96</dim>
					<dim>1</dim>
					<dim>1</dim>
				</port>
			</input>
			<output>
				<port id="1" precision="FP32">
					<dim>1</dim>
					<dim>96</dim>
					<dim>1</dim>
					<dim>1</dim>
				</port>
			</output>
		</layer>
		<layer id="46" name="BatchNormalization_18" type="Add" version="opset1">
			<data auto_broadcast="numpy" />
			<input>
				<port id="0" precision="FP32">
					<dim>1</dim>
					<dim>96</dim>
					<dim>144</dim>
					<dim>144</dim>
				</port>
				<port id="1" precision="FP32">
					<dim>1</dim>
					<dim>96</dim>
					<dim>1</dim>
					<dim>1</dim>
				</port>
			</input>
			<output>
				<port id="2" precision="FP32" names="1267">
					<dim>1</dim>
					<dim>96</dim>
					<dim>144</dim>
					<dim>144</dim>
				</port>
			</output>
		</layer>
		<layer id="47" name="Mul_20" type="Swish" version="opset4">
			<input>
				<port id="0" precision="FP32">
					<dim>1</dim>
					<dim>96</dim>
					<dim>144</dim>
					<dim>144</dim>
				</port>
			</input>
			<output>
				<port id="1" precision="FP32" names="1269">
					<dim>1</dim>
					<dim>96</dim>
					<dim>144</dim>
					<dim>144</dim>
				</port>
			</output>
		</layer>
		<layer id="48" name="Multiply_69078_compressed" type="Const" version="opset1">
			<data element_type="f16" shape="96, 1, 1, 3, 3" offset="6546" size="1728" />
			<output>
				<port id="0" precision="FP16">
					<dim>96</dim>
					<dim>1</dim>
					<dim>1</dim>
					<dim>3</dim>
					<dim>3</dim>
				</port>
			</output>
		</layer>
		<layer id="49" name="Multiply_69078" type="Convert" version="opset1">
			<data destination_type="f32" />
			<rt_info>
				<attribute name="decompression" version="0" />
			</rt_info>
			<input>
				<port id="0" precision="FP16">
					<dim>96</dim>
					<dim>1</dim>
					<dim>1</dim>
					<dim>3</dim>
					<dim>3</dim>
				</port>
			</input>
			<output>
				<port id="1" precision="FP32">
					<dim>96</dim>
					<dim>1</dim>
					<dim>1</dim>
					<dim>3</dim>
					<dim>3</dim>
				</port>
			</output>
		</layer>
		<layer id="50" name="Multiply_67777" type="GroupConvolution" version="opset1">
			<data strides="2, 2" pads_begin="1, 1" pads_end="1, 1" dilations="1, 1" auto_pad="explicit" />
			<input>
				<port id="0" precision="FP32">
					<dim>1</dim>
					<dim>96</dim>
					<dim>144</dim>
					<dim>144</dim>
				</port>
				<port id="1" precision="FP32">
					<dim>96</dim>
					<dim>1</dim>
					<dim>1</dim>
					<dim>3</dim>
					<dim>3</dim>
				</port>
			</input>
			<output>
				<port id="2" precision="FP32" names="1270">
					<dim>1</dim>
					<dim>96</dim>
					<dim>72</dim>
					<dim>72</dim>
				</port>
			</output>
		</layer>
		<layer id="51" name="Constant_67782_compressed" type="Const" version="opset1">
			<data element_type="f16" shape="1, 96, 1, 1" offset="8274" size="192" />
			<output>
				<port id="0" precision="FP16">
					<dim>1</dim>
					<dim>96</dim>
					<dim>1</dim>
					<dim>1</dim>
				</port>
			</output>
		</layer>
		<layer id="52" name="Constant_67782" type="Convert" version="opset1">
			<data destination_type="f32" />
			<rt_info>
				<attribute name="decompression" version="0" />
			</rt_info>
			<input>
				<port id="0" precision="FP16">
					<dim>1</dim>
					<dim>96</dim>
					<dim>1</dim>
					<dim>1</dim>
				</port>
			</input>
			<output>
				<port id="1" precision="FP32">
					<dim>1</dim>
					<dim>96</dim>
					<dim>1</dim>
					<dim>1</dim>
				</port>
			</output>
		</layer>
		<layer id="53" name="BatchNormalization_22" type="Add" version="opset1">
			<data auto_broadcast="numpy" />
			<input>
				<port id="0" precision="FP32">
					<dim>1</dim>
					<dim>96</dim>
					<dim>72</dim>
					<dim>72</dim>
				</port>
				<port id="1" precision="FP32">
					<dim>1</dim>
					<dim>96</dim>
					<dim>1</dim>
					<dim>1</dim>
				</port>
			</input>
			<output>
				<port id="2" precision="FP32" names="1271">
					<dim>1</dim>
					<dim>96</dim>
					<dim>72</dim>
					<dim>72</dim>
				</port>
			</output>
		</layer>
		<layer id="54" name="Mul_24" type="Swish" version="opset4">
			<input>
				<port id="0" precision="FP32">
					<dim>1</dim>
					<dim>96</dim>
					<dim>72</dim>
					<dim>72</dim>
				</port>
			</input>
			<output>
				<port id="1" precision="FP32" names="1273">
					<dim>1</dim>
					<dim>96</dim>
					<dim>72</dim>
					<dim>72</dim>
				</port>
			</output>
		</layer>
		<layer id="55" name="Range_1288" type="Const" version="opset1">
			<data element_type="i64" shape="2" offset="1830" size="16" />
			<output>
				<port id="0" precision="I64">
					<dim>2</dim>
				</port>
			</output>
		</layer>
		<layer id="56" name="GlobalAveragePool_25" type="ReduceMean" version="opset1">
			<data keep_dims="true" />
			<input>
				<port id="0" precision="FP32">
					<dim>1</dim>
					<dim>96</dim>
					<dim>72</dim>
					<dim>72</dim>
				</port>
				<port id="1" precision="I64">
					<dim>2</dim>
				</port>
			</input>
			<output>
				<port id="2" precision="FP32" names="1274">
					<dim>1</dim>
					<dim>96</dim>
					<dim>1</dim>
					<dim>1</dim>
				</port>
			</output>
		</layer>
		<layer id="57" name="backbone.module.features.stage2.unit1.se.conv1.weight_compressed" type="Const" version="opset1">
			<data element_type="f16" shape="4, 96, 1, 1" offset="8466" size="768" />
			<output>
				<port id="0" precision="FP16">
					<dim>4</dim>
					<dim>96</dim>
					<dim>1</dim>
					<dim>1</dim>
				</port>
			</output>
		</layer>
		<layer id="58" name="backbone.module.features.stage2.unit1.se.conv1.weight" type="Convert" version="opset1">
			<data destination_type="f32" />
			<rt_info>
				<attribute name="decompression" version="0" />
			</rt_info>
			<input>
				<port id="0" precision="FP16">
					<dim>4</dim>
					<dim>96</dim>
					<dim>1</dim>
					<dim>1</dim>
				</port>
			</input>
			<output>
				<port id="1" precision="FP32" names="backbone.module.features.stage2.unit1.se.conv1.weight">
					<dim>4</dim>
					<dim>96</dim>
					<dim>1</dim>
					<dim>1</dim>
				</port>
			</output>
		</layer>
		<layer id="59" name="Conv_26/WithoutBiases" type="Convolution" version="opset1">
			<data strides="1, 1" dilations="1, 1" pads_begin="0, 0" pads_end="0, 0" auto_pad="explicit" />
			<input>
				<port id="0" precision="FP32">
					<dim>1</dim>
					<dim>96</dim>
					<dim>1</dim>
					<dim>1</dim>
				</port>
				<port id="1" precision="FP32">
					<dim>4</dim>
					<dim>96</dim>
					<dim>1</dim>
					<dim>1</dim>
				</port>
			</input>
			<output>
				<port id="2" precision="FP32">
					<dim>1</dim>
					<dim>4</dim>
					<dim>1</dim>
					<dim>1</dim>
				</port>
			</output>
		</layer>
		<layer id="60" name="Reshape_1333_compressed" type="Const" version="opset1">
			<data element_type="f16" shape="1, 4, 1, 1" offset="9234" size="8" />
			<output>
				<port id="0" precision="FP16">
					<dim>1</dim>
					<dim>4</dim>
					<dim>1</dim>
					<dim>1</dim>
				</port>
			</output>
		</layer>
		<layer id="61" name="Reshape_1333" type="Convert" version="opset1">
			<data destination_type="f32" />
			<rt_info>
				<attribute name="decompression" version="0" />
			</rt_info>
			<input>
				<port id="0" precision="FP16">
					<dim>1</dim>
					<dim>4</dim>
					<dim>1</dim>
					<dim>1</dim>
				</port>
			</input>
			<output>
				<port id="1" precision="FP32">
					<dim>1</dim>
					<dim>4</dim>
					<dim>1</dim>
					<dim>1</dim>
				</port>
			</output>
		</layer>
		<layer id="62" name="Conv_26" type="Add" version="opset1">
			<data auto_broadcast="numpy" />
			<input>
				<port id="0" precision="FP32">
					<dim>1</dim>
					<dim>4</dim>
					<dim>1</dim>
					<dim>1</dim>
				</port>
				<port id="1" precision="FP32">
					<dim>1</dim>
					<dim>4</dim>
					<dim>1</dim>
					<dim>1</dim>
				</port>
			</input>
			<output>
				<port id="2" precision="FP32" names="1275">
					<dim>1</dim>
					<dim>4</dim>
					<dim>1</dim>
					<dim>1</dim>
				</port>
			</output>
		</layer>
		<layer id="63" name="Mul_28" type="Swish" version="opset4">
			<input>
				<port id="0" precision="FP32">
					<dim>1</dim>
					<dim>4</dim>
					<dim>1</dim>
					<dim>1</dim>
				</port>
			</input>
			<output>
				<port id="1" precision="FP32" names="1277">
					<dim>1</dim>
					<dim>4</dim>
					<dim>1</dim>
					<dim>1</dim>
				</port>
			</output>
		</layer>
		<layer id="64" name="backbone.module.features.stage2.unit1.se.conv2.weight_compressed" type="Const" version="opset1">
			<data element_type="f16" shape="96, 4, 1, 1" offset="9242" size="768" />
			<output>
				<port id="0" precision="FP16">
					<dim>96</dim>
					<dim>4</dim>
					<dim>1</dim>
					<dim>1</dim>
				</port>
			</output>
		</layer>
		<layer id="65" name="backbone.module.features.stage2.unit1.se.conv2.weight" type="Convert" version="opset1">
			<data destination_type="f32" />
			<rt_info>
				<attribute name="decompression" version="0" />
			</rt_info>
			<input>
				<port id="0" precision="FP16">
					<dim>96</dim>
					<dim>4</dim>
					<dim>1</dim>
					<dim>1</dim>
				</port>
			</input>
			<output>
				<port id="1" precision="FP32" names="backbone.module.features.stage2.unit1.se.conv2.weight">
					<dim>96</dim>
					<dim>4</dim>
					<dim>1</dim>
					<dim>1</dim>
				</port>
			</output>
		</layer>
		<layer id="66" name="Conv_29/WithoutBiases" type="Convolution" version="opset1">
			<data strides="1, 1" dilations="1, 1" pads_begin="0, 0" pads_end="0, 0" auto_pad="explicit" />
			<input>
				<port id="0" precision="FP32">
					<dim>1</dim>
					<dim>4</dim>
					<dim>1</dim>
					<dim>1</dim>
				</port>
				<port id="1" precision="FP32">
					<dim>96</dim>
					<dim>4</dim>
					<dim>1</dim>
					<dim>1</dim>
				</port>
			</input>
			<output>
				<port id="2" precision="FP32">
					<dim>1</dim>
					<dim>96</dim>
					<dim>1</dim>
					<dim>1</dim>
				</port>
			</output>
		</layer>
		<layer id="67" name="Reshape_1383_compressed" type="Const" version="opset1">
			<data element_type="f16" shape="1, 96, 1, 1" offset="10010" size="192" />
			<output>
				<port id="0" precision="FP16">
					<dim>1</dim>
					<dim>96</dim>
					<dim>1</dim>
					<dim>1</dim>
				</port>
			</output>
		</layer>
		<layer id="68" name="Reshape_1383" type="Convert" version="opset1">
			<data destination_type="f32" />
			<rt_info>
				<attribute name="decompression" version="0" />
			</rt_info>
			<input>
				<port id="0" precision="FP16">
					<dim>1</dim>
					<dim>96</dim>
					<dim>1</dim>
					<dim>1</dim>
				</port>
			</input>
			<output>
				<port id="1" precision="FP32">
					<dim>1</dim>
					<dim>96</dim>
					<dim>1</dim>
					<dim>1</dim>
				</port>
			</output>
		</layer>
		<layer id="69" name="Conv_29" type="Add" version="opset1">
			<data auto_broadcast="numpy" />
			<input>
				<port id="0" precision="FP32">
					<dim>1</dim>
					<dim>96</dim>
					<dim>1</dim>
					<dim>1</dim>
				</port>
				<port id="1" precision="FP32">
					<dim>1</dim>
					<dim>96</dim>
					<dim>1</dim>
					<dim>1</dim>
				</port>
			</input>
			<output>
				<port id="2" precision="FP32" names="1278">
					<dim>1</dim>
					<dim>96</dim>
					<dim>1</dim>
					<dim>1</dim>
				</port>
			</output>
		</layer>
		<layer id="70" name="Sigmoid_30" type="Sigmoid" version="opset1">
			<input>
				<port id="0" precision="FP32">
					<dim>1</dim>
					<dim>96</dim>
					<dim>1</dim>
					<dim>1</dim>
				</port>
			</input>
			<output>
				<port id="1" precision="FP32" names="1279">
					<dim>1</dim>
					<dim>96</dim>
					<dim>1</dim>
					<dim>1</dim>
				</port>
			</output>
		</layer>
		<layer id="71" name="Mul_31" type="Multiply" version="opset1">
			<data auto_broadcast="numpy" />
			<input>
				<port id="0" precision="FP32">
					<dim>1</dim>
					<dim>96</dim>
					<dim>72</dim>
					<dim>72</dim>
				</port>
				<port id="1" precision="FP32">
					<dim>1</dim>
					<dim>96</dim>
					<dim>1</dim>
					<dim>1</dim>
				</port>
			</input>
			<output>
				<port id="2" precision="FP32" names="1280">
					<dim>1</dim>
					<dim>96</dim>
					<dim>72</dim>
					<dim>72</dim>
				</port>
			</output>
		</layer>
		<layer id="72" name="Multiply_69086_compressed" type="Const" version="opset1">
			<data element_type="f16" shape="24, 96, 1, 1" offset="10202" size="4608" />
			<output>
				<port id="0" precision="FP16">
					<dim>24</dim>
					<dim>96</dim>
					<dim>1</dim>
					<dim>1</dim>
				</port>
			</output>
		</layer>
		<layer id="73" name="Multiply_69086" type="Convert" version="opset1">
			<data destination_type="f32" />
			<rt_info>
				<attribute name="decompression" version="0" />
			</rt_info>
			<input>
				<port id="0" precision="FP16">
					<dim>24</dim>
					<dim>96</dim>
					<dim>1</dim>
					<dim>1</dim>
				</port>
			</input>
			<output>
				<port id="1" precision="FP32">
					<dim>24</dim>
					<dim>96</dim>
					<dim>1</dim>
					<dim>1</dim>
				</port>
			</output>
		</layer>
		<layer id="74" name="Multiply_67784" type="Convolution" version="opset1">
			<data strides="1, 1" dilations="1, 1" pads_begin="0, 0" pads_end="0, 0" auto_pad="explicit" />
			<input>
				<port id="0" precision="FP32">
					<dim>1</dim>
					<dim>96</dim>
					<dim>72</dim>
					<dim>72</dim>
				</port>
				<port id="1" precision="FP32">
					<dim>24</dim>
					<dim>96</dim>
					<dim>1</dim>
					<dim>1</dim>
				</port>
			</input>
			<output>
				<port id="2" precision="FP32">
					<dim>1</dim>
					<dim>24</dim>
					<dim>72</dim>
					<dim>72</dim>
				</port>
			</output>
		</layer>
		<layer id="75" name="Constant_67789_compressed" type="Const" version="opset1">
			<data element_type="f16" shape="1, 24, 1, 1" offset="14810" size="48" />
			<output>
				<port id="0" precision="FP16">
					<dim>1</dim>
					<dim>24</dim>
					<dim>1</dim>
					<dim>1</dim>
				</port>
			</output>
		</layer>
		<layer id="76" name="Constant_67789" type="Convert" version="opset1">
			<data destination_type="f32" />
			<rt_info>
				<attribute name="decompression" version="0" />
			</rt_info>
			<input>
				<port id="0" precision="FP16">
					<dim>1</dim>
					<dim>24</dim>
					<dim>1</dim>
					<dim>1</dim>
				</port>
			</input>
			<output>
				<port id="1" precision="FP32">
					<dim>1</dim>
					<dim>24</dim>
					<dim>1</dim>
					<dim>1</dim>
				</port>
			</output>
		</layer>
		<layer id="77" name="BatchNormalization_33" type="Add" version="opset1">
			<data auto_broadcast="numpy" />
			<input>
				<port id="0" precision="FP32">
					<dim>1</dim>
					<dim>24</dim>
					<dim>72</dim>
					<dim>72</dim>
				</port>
				<port id="1" precision="FP32">
					<dim>1</dim>
					<dim>24</dim>
					<dim>1</dim>
					<dim>1</dim>
				</port>
			</input>
			<output>
				<port id="2" precision="FP32" names="1282">
					<dim>1</dim>
					<dim>24</dim>
					<dim>72</dim>
					<dim>72</dim>
				</port>
			</output>
		</layer>
		<layer id="78" name="Multiply_69095_compressed" type="Const" version="opset1">
			<data element_type="f16" shape="144, 24, 1, 1" offset="14858" size="6912" />
			<output>
				<port id="0" precision="FP16">
					<dim>144</dim>
					<dim>24</dim>
					<dim>1</dim>
					<dim>1</dim>
				</port>
			</output>
		</layer>
		<layer id="79" name="Multiply_69095" type="Convert" version="opset1">
			<data destination_type="f32" />
			<rt_info>
				<attribute name="decompression" version="0" />
			</rt_info>
			<input>
				<port id="0" precision="FP16">
					<dim>144</dim>
					<dim>24</dim>
					<dim>1</dim>
					<dim>1</dim>
				</port>
			</input>
			<output>
				<port id="1" precision="FP32">
					<dim>144</dim>
					<dim>24</dim>
					<dim>1</dim>
					<dim>1</dim>
				</port>
			</output>
		</layer>
		<layer id="80" name="Multiply_67791" type="Convolution" version="opset1">
			<data strides="1, 1" dilations="1, 1" pads_begin="0, 0" pads_end="0, 0" auto_pad="explicit" />
			<input>
				<port id="0" precision="FP32">
					<dim>1</dim>
					<dim>24</dim>
					<dim>72</dim>
					<dim>72</dim>
				</port>
				<port id="1" precision="FP32">
					<dim>144</dim>
					<dim>24</dim>
					<dim>1</dim>
					<dim>1</dim>
				</port>
			</input>
			<output>
				<port id="2" precision="FP32">
					<dim>1</dim>
					<dim>144</dim>
					<dim>72</dim>
					<dim>72</dim>
				</port>
			</output>
		</layer>
		<layer id="81" name="Constant_67796_compressed" type="Const" version="opset1">
			<data element_type="f16" shape="1, 144, 1, 1" offset="21770" size="288" />
			<output>
				<port id="0" precision="FP16">
					<dim>1</dim>
					<dim>144</dim>
					<dim>1</dim>
					<dim>1</dim>
				</port>
			</output>
		</layer>
		<layer id="82" name="Constant_67796" type="Convert" version="opset1">
			<data destination_type="f32" />
			<rt_info>
				<attribute name="decompression" version="0" />
			</rt_info>
			<input>
				<port id="0" precision="FP16">
					<dim>1</dim>
					<dim>144</dim>
					<dim>1</dim>
					<dim>1</dim>
				</port>
			</input>
			<output>
				<port id="1" precision="FP32">
					<dim>1</dim>
					<dim>144</dim>
					<dim>1</dim>
					<dim>1</dim>
				</port>
			</output>
		</layer>
		<layer id="83" name="BatchNormalization_35" type="Add" version="opset1">
			<data auto_broadcast="numpy" />
			<input>
				<port id="0" precision="FP32">
					<dim>1</dim>
					<dim>144</dim>
					<dim>72</dim>
					<dim>72</dim>
				</port>
				<port id="1" precision="FP32">
					<dim>1</dim>
					<dim>144</dim>
					<dim>1</dim>
					<dim>1</dim>
				</port>
			</input>
			<output>
				<port id="2" precision="FP32" names="1284">
					<dim>1</dim>
					<dim>144</dim>
					<dim>72</dim>
					<dim>72</dim>
				</port>
			</output>
		</layer>
		<layer id="84" name="Mul_37" type="Swish" version="opset4">
			<input>
				<port id="0" precision="FP32">
					<dim>1</dim>
					<dim>144</dim>
					<dim>72</dim>
					<dim>72</dim>
				</port>
			</input>
			<output>
				<port id="1" precision="FP32" names="1286">
					<dim>1</dim>
					<dim>144</dim>
					<dim>72</dim>
					<dim>72</dim>
				</port>
			</output>
		</layer>
		<layer id="85" name="Multiply_69104_compressed" type="Const" version="opset1">
			<data element_type="f16" shape="144, 1, 1, 3, 3" offset="22058" size="2592" />
			<output>
				<port id="0" precision="FP16">
					<dim>144</dim>
					<dim>1</dim>
					<dim>1</dim>
					<dim>3</dim>
					<dim>3</dim>
				</port>
			</output>
		</layer>
		<layer id="86" name="Multiply_69104" type="Convert" version="opset1">
			<data destination_type="f32" />
			<rt_info>
				<attribute name="decompression" version="0" />
			</rt_info>
			<input>
				<port id="0" precision="FP16">
					<dim>144</dim>
					<dim>1</dim>
					<dim>1</dim>
					<dim>3</dim>
					<dim>3</dim>
				</port>
			</input>
			<output>
				<port id="1" precision="FP32">
					<dim>144</dim>
					<dim>1</dim>
					<dim>1</dim>
					<dim>3</dim>
					<dim>3</dim>
				</port>
			</output>
		</layer>
		<layer id="87" name="Multiply_67798" type="GroupConvolution" version="opset1">
			<data strides="1, 1" pads_begin="1, 1" pads_end="1, 1" dilations="1, 1" auto_pad="explicit" />
			<input>
				<port id="0" precision="FP32">
					<dim>1</dim>
					<dim>144</dim>
					<dim>72</dim>
					<dim>72</dim>
				</port>
				<port id="1" precision="FP32">
					<dim>144</dim>
					<dim>1</dim>
					<dim>1</dim>
					<dim>3</dim>
					<dim>3</dim>
				</port>
			</input>
			<output>
				<port id="2" precision="FP32" names="1287">
					<dim>1</dim>
					<dim>144</dim>
					<dim>72</dim>
					<dim>72</dim>
				</port>
			</output>
		</layer>
		<layer id="88" name="Constant_67803_compressed" type="Const" version="opset1">
			<data element_type="f16" shape="1, 144, 1, 1" offset="24650" size="288" />
			<output>
				<port id="0" precision="FP16">
					<dim>1</dim>
					<dim>144</dim>
					<dim>1</dim>
					<dim>1</dim>
				</port>
			</output>
		</layer>
		<layer id="89" name="Constant_67803" type="Convert" version="opset1">
			<data destination_type="f32" />
			<rt_info>
				<attribute name="decompression" version="0" />
			</rt_info>
			<input>
				<port id="0" precision="FP16">
					<dim>1</dim>
					<dim>144</dim>
					<dim>1</dim>
					<dim>1</dim>
				</port>
			</input>
			<output>
				<port id="1" precision="FP32">
					<dim>1</dim>
					<dim>144</dim>
					<dim>1</dim>
					<dim>1</dim>
				</port>
			</output>
		</layer>
		<layer id="90" name="BatchNormalization_39" type="Add" version="opset1">
			<data auto_broadcast="numpy" />
			<input>
				<port id="0" precision="FP32">
					<dim>1</dim>
					<dim>144</dim>
					<dim>72</dim>
					<dim>72</dim>
				</port>
				<port id="1" precision="FP32">
					<dim>1</dim>
					<dim>144</dim>
					<dim>1</dim>
					<dim>1</dim>
				</port>
			</input>
			<output>
				<port id="2" precision="FP32" names="1288">
					<dim>1</dim>
					<dim>144</dim>
					<dim>72</dim>
					<dim>72</dim>
				</port>
			</output>
		</layer>
		<layer id="91" name="Mul_41" type="Swish" version="opset4">
			<input>
				<port id="0" precision="FP32">
					<dim>1</dim>
					<dim>144</dim>
					<dim>72</dim>
					<dim>72</dim>
				</port>
			</input>
			<output>
				<port id="1" precision="FP32" names="1290">
					<dim>1</dim>
					<dim>144</dim>
					<dim>72</dim>
					<dim>72</dim>
				</port>
			</output>
		</layer>
		<layer id="92" name="Range_1505" type="Const" version="opset1">
			<data element_type="i64" shape="2" offset="1830" size="16" />
			<output>
				<port id="0" precision="I64">
					<dim>2</dim>
				</port>
			</output>
		</layer>
		<layer id="93" name="GlobalAveragePool_42" type="ReduceMean" version="opset1">
			<data keep_dims="true" />
			<input>
				<port id="0" precision="FP32">
					<dim>1</dim>
					<dim>144</dim>
					<dim>72</dim>
					<dim>72</dim>
				</port>
				<port id="1" precision="I64">
					<dim>2</dim>
				</port>
			</input>
			<output>
				<port id="2" precision="FP32" names="1291">
					<dim>1</dim>
					<dim>144</dim>
					<dim>1</dim>
					<dim>1</dim>
				</port>
			</output>
		</layer>
		<layer id="94" name="backbone.module.features.stage2.unit2.se.conv1.weight_compressed" type="Const" version="opset1">
			<data element_type="f16" shape="6, 144, 1, 1" offset="24938" size="1728" />
			<output>
				<port id="0" precision="FP16">
					<dim>6</dim>
					<dim>144</dim>
					<dim>1</dim>
					<dim>1</dim>
				</port>
			</output>
		</layer>
		<layer id="95" name="backbone.module.features.stage2.unit2.se.conv1.weight" type="Convert" version="opset1">
			<data destination_type="f32" />
			<rt_info>
				<attribute name="decompression" version="0" />
			</rt_info>
			<input>
				<port id="0" precision="FP16">
					<dim>6</dim>
					<dim>144</dim>
					<dim>1</dim>
					<dim>1</dim>
				</port>
			</input>
			<output>
				<port id="1" precision="FP32" names="backbone.module.features.stage2.unit2.se.conv1.weight">
					<dim>6</dim>
					<dim>144</dim>
					<dim>1</dim>
					<dim>1</dim>
				</port>
			</output>
		</layer>
		<layer id="96" name="Conv_43/WithoutBiases" type="Convolution" version="opset1">
			<data strides="1, 1" dilations="1, 1" pads_begin="0, 0" pads_end="0, 0" auto_pad="explicit" />
			<input>
				<port id="0" precision="FP32">
					<dim>1</dim>
					<dim>144</dim>
					<dim>1</dim>
					<dim>1</dim>
				</port>
				<port id="1" precision="FP32">
					<dim>6</dim>
					<dim>144</dim>
					<dim>1</dim>
					<dim>1</dim>
				</port>
			</input>
			<output>
				<port id="2" precision="FP32">
					<dim>1</dim>
					<dim>6</dim>
					<dim>1</dim>
					<dim>1</dim>
				</port>
			</output>
		</layer>
		<layer id="97" name="Reshape_1550_compressed" type="Const" version="opset1">
			<data element_type="f16" shape="1, 6, 1, 1" offset="26666" size="12" />
			<output>
				<port id="0" precision="FP16">
					<dim>1</dim>
					<dim>6</dim>
					<dim>1</dim>
					<dim>1</dim>
				</port>
			</output>
		</layer>
		<layer id="98" name="Reshape_1550" type="Convert" version="opset1">
			<data destination_type="f32" />
			<rt_info>
				<attribute name="decompression" version="0" />
			</rt_info>
			<input>
				<port id="0" precision="FP16">
					<dim>1</dim>
					<dim>6</dim>
					<dim>1</dim>
					<dim>1</dim>
				</port>
			</input>
			<output>
				<port id="1" precision="FP32">
					<dim>1</dim>
					<dim>6</dim>
					<dim>1</dim>
					<dim>1</dim>
				</port>
			</output>
		</layer>
		<layer id="99" name="Conv_43" type="Add" version="opset1">
			<data auto_broadcast="numpy" />
			<input>
				<port id="0" precision="FP32">
					<dim>1</dim>
					<dim>6</dim>
					<dim>1</dim>
					<dim>1</dim>
				</port>
				<port id="1" precision="FP32">
					<dim>1</dim>
					<dim>6</dim>
					<dim>1</dim>
					<dim>1</dim>
				</port>
			</input>
			<output>
				<port id="2" precision="FP32" names="1292">
					<dim>1</dim>
					<dim>6</dim>
					<dim>1</dim>
					<dim>1</dim>
				</port>
			</output>
		</layer>
		<layer id="100" name="Mul_45" type="Swish" version="opset4">
			<input>
				<port id="0" precision="FP32">
					<dim>1</dim>
					<dim>6</dim>
					<dim>1</dim>
					<dim>1</dim>
				</port>
			</input>
			<output>
				<port id="1" precision="FP32" names="1294">
					<dim>1</dim>
					<dim>6</dim>
					<dim>1</dim>
					<dim>1</dim>
				</port>
			</output>
		</layer>
		<layer id="101" name="backbone.module.features.stage2.unit2.se.conv2.weight_compressed" type="Const" version="opset1">
			<data element_type="f16" shape="144, 6, 1, 1" offset="26678" size="1728" />
			<output>
				<port id="0" precision="FP16">
					<dim>144</dim>
					<dim>6</dim>
					<dim>1</dim>
					<dim>1</dim>
				</port>
			</output>
		</layer>
		<layer id="102" name="backbone.module.features.stage2.unit2.se.conv2.weight" type="Convert" version="opset1">
			<data destination_type="f32" />
			<rt_info>
				<attribute name="decompression" version="0" />
			</rt_info>
			<input>
				<port id="0" precision="FP16">
					<dim>144</dim>
					<dim>6</dim>
					<dim>1</dim>
					<dim>1</dim>
				</port>
			</input>
			<output>
				<port id="1" precision="FP32" names="backbone.module.features.stage2.unit2.se.conv2.weight">
					<dim>144</dim>
					<dim>6</dim>
					<dim>1</dim>
					<dim>1</dim>
				</port>
			</output>
		</layer>
		<layer id="103" name="Conv_46/WithoutBiases" type="Convolution" version="opset1">
			<data strides="1, 1" dilations="1, 1" pads_begin="0, 0" pads_end="0, 0" auto_pad="explicit" />
			<input>
				<port id="0" precision="FP32">
					<dim>1</dim>
					<dim>6</dim>
					<dim>1</dim>
					<dim>1</dim>
				</port>
				<port id="1" precision="FP32">
					<dim>144</dim>
					<dim>6</dim>
					<dim>1</dim>
					<dim>1</dim>
				</port>
			</input>
			<output>
				<port id="2" precision="FP32">
					<dim>1</dim>
					<dim>144</dim>
					<dim>1</dim>
					<dim>1</dim>
				</port>
			</output>
		</layer>
		<layer id="104" name="Reshape_1600_compressed" type="Const" version="opset1">
			<data element_type="f16" shape="1, 144, 1, 1" offset="28406" size="288" />
			<output>
				<port id="0" precision="FP16">
					<dim>1</dim>
					<dim>144</dim>
					<dim>1</dim>
					<dim>1</dim>
				</port>
			</output>
		</layer>
		<layer id="105" name="Reshape_1600" type="Convert" version="opset1">
			<data destination_type="f32" />
			<rt_info>
				<attribute name="decompression" version="0" />
			</rt_info>
			<input>
				<port id="0" precision="FP16">
					<dim>1</dim>
					<dim>144</dim>
					<dim>1</dim>
					<dim>1</dim>
				</port>
			</input>
			<output>
				<port id="1" precision="FP32">
					<dim>1</dim>
					<dim>144</dim>
					<dim>1</dim>
					<dim>1</dim>
				</port>
			</output>
		</layer>
		<layer id="106" name="Conv_46" type="Add" version="opset1">
			<data auto_broadcast="numpy" />
			<input>
				<port id="0" precision="FP32">
					<dim>1</dim>
					<dim>144</dim>
					<dim>1</dim>
					<dim>1</dim>
				</port>
				<port id="1" precision="FP32">
					<dim>1</dim>
					<dim>144</dim>
					<dim>1</dim>
					<dim>1</dim>
				</port>
			</input>
			<output>
				<port id="2" precision="FP32" names="1295">
					<dim>1</dim>
					<dim>144</dim>
					<dim>1</dim>
					<dim>1</dim>
				</port>
			</output>
		</layer>
		<layer id="107" name="Sigmoid_47" type="Sigmoid" version="opset1">
			<input>
				<port id="0" precision="FP32">
					<dim>1</dim>
					<dim>144</dim>
					<dim>1</dim>
					<dim>1</dim>
				</port>
			</input>
			<output>
				<port id="1" precision="FP32" names="1296">
					<dim>1</dim>
					<dim>144</dim>
					<dim>1</dim>
					<dim>1</dim>
				</port>
			</output>
		</layer>
		<layer id="108" name="Mul_48" type="Multiply" version="opset1">
			<data auto_broadcast="numpy" />
			<input>
				<port id="0" precision="FP32">
					<dim>1</dim>
					<dim>144</dim>
					<dim>72</dim>
					<dim>72</dim>
				</port>
				<port id="1" precision="FP32">
					<dim>1</dim>
					<dim>144</dim>
					<dim>1</dim>
					<dim>1</dim>
				</port>
			</input>
			<output>
				<port id="2" precision="FP32" names="1297">
					<dim>1</dim>
					<dim>144</dim>
					<dim>72</dim>
					<dim>72</dim>
				</port>
			</output>
		</layer>
		<layer id="109" name="Multiply_69112_compressed" type="Const" version="opset1">
			<data element_type="f16" shape="24, 144, 1, 1" offset="28694" size="6912" />
			<output>
				<port id="0" precision="FP16">
					<dim>24</dim>
					<dim>144</dim>
					<dim>1</dim>
					<dim>1</dim>
				</port>
			</output>
		</layer>
		<layer id="110" name="Multiply_69112" type="Convert" version="opset1">
			<data destination_type="f32" />
			<rt_info>
				<attribute name="decompression" version="0" />
			</rt_info>
			<input>
				<port id="0" precision="FP16">
					<dim>24</dim>
					<dim>144</dim>
					<dim>1</dim>
					<dim>1</dim>
				</port>
			</input>
			<output>
				<port id="1" precision="FP32">
					<dim>24</dim>
					<dim>144</dim>
					<dim>1</dim>
					<dim>1</dim>
				</port>
			</output>
		</layer>
		<layer id="111" name="Multiply_67805" type="Convolution" version="opset1">
			<data strides="1, 1" dilations="1, 1" pads_begin="0, 0" pads_end="0, 0" auto_pad="explicit" />
			<input>
				<port id="0" precision="FP32">
					<dim>1</dim>
					<dim>144</dim>
					<dim>72</dim>
					<dim>72</dim>
				</port>
				<port id="1" precision="FP32">
					<dim>24</dim>
					<dim>144</dim>
					<dim>1</dim>
					<dim>1</dim>
				</port>
			</input>
			<output>
				<port id="2" precision="FP32">
					<dim>1</dim>
					<dim>24</dim>
					<dim>72</dim>
					<dim>72</dim>
				</port>
			</output>
		</layer>
		<layer id="112" name="Constant_67810_compressed" type="Const" version="opset1">
			<data element_type="f16" shape="1, 24, 1, 1" offset="35606" size="48" />
			<output>
				<port id="0" precision="FP16">
					<dim>1</dim>
					<dim>24</dim>
					<dim>1</dim>
					<dim>1</dim>
				</port>
			</output>
		</layer>
		<layer id="113" name="Constant_67810" type="Convert" version="opset1">
			<data destination_type="f32" />
			<rt_info>
				<attribute name="decompression" version="0" />
			</rt_info>
			<input>
				<port id="0" precision="FP16">
					<dim>1</dim>
					<dim>24</dim>
					<dim>1</dim>
					<dim>1</dim>
				</port>
			</input>
			<output>
				<port id="1" precision="FP32">
					<dim>1</dim>
					<dim>24</dim>
					<dim>1</dim>
					<dim>1</dim>
				</port>
			</output>
		</layer>
		<layer id="114" name="BatchNormalization_50" type="Add" version="opset1">
			<data auto_broadcast="numpy" />
			<input>
				<port id="0" precision="FP32">
					<dim>1</dim>
					<dim>24</dim>
					<dim>72</dim>
					<dim>72</dim>
				</port>
				<port id="1" precision="FP32">
					<dim>1</dim>
					<dim>24</dim>
					<dim>1</dim>
					<dim>1</dim>
				</port>
			</input>
			<output>
				<port id="2" precision="FP32" names="1299">
					<dim>1</dim>
					<dim>24</dim>
					<dim>72</dim>
					<dim>72</dim>
				</port>
			</output>
		</layer>
		<layer id="115" name="Add_51" type="Add" version="opset1">
			<data auto_broadcast="numpy" />
			<input>
				<port id="0" precision="FP32">
					<dim>1</dim>
					<dim>24</dim>
					<dim>72</dim>
					<dim>72</dim>
				</port>
				<port id="1" precision="FP32">
					<dim>1</dim>
					<dim>24</dim>
					<dim>72</dim>
					<dim>72</dim>
				</port>
			</input>
			<output>
				<port id="2" precision="FP32" names="1300">
					<dim>1</dim>
					<dim>24</dim>
					<dim>72</dim>
					<dim>72</dim>
				</port>
			</output>
		</layer>
		<layer id="116" name="Multiply_69121_compressed" type="Const" version="opset1">
			<data element_type="f16" shape="21, 24, 3, 3" offset="35654" size="9072" />
			<output>
				<port id="0" precision="FP16">
					<dim>21</dim>
					<dim>24</dim>
					<dim>3</dim>
					<dim>3</dim>
				</port>
			</output>
		</layer>
		<layer id="117" name="Multiply_69121" type="Convert" version="opset1">
			<data destination_type="f32" />
			<rt_info>
				<attribute name="decompression" version="0" />
			</rt_info>
			<input>
				<port id="0" precision="FP16">
					<dim>21</dim>
					<dim>24</dim>
					<dim>3</dim>
					<dim>3</dim>
				</port>
			</input>
			<output>
				<port id="1" precision="FP32">
					<dim>21</dim>
					<dim>24</dim>
					<dim>3</dim>
					<dim>3</dim>
				</port>
			</output>
		</layer>
		<layer id="118" name="Multiply_67812" type="Convolution" version="opset1">
			<data strides="1, 1" dilations="1, 1" pads_begin="1, 1" pads_end="1, 1" auto_pad="explicit" />
			<input>
				<port id="0" precision="FP32">
					<dim>1</dim>
					<dim>24</dim>
					<dim>72</dim>
					<dim>72</dim>
				</port>
				<port id="1" precision="FP32">
					<dim>21</dim>
					<dim>24</dim>
					<dim>3</dim>
					<dim>3</dim>
				</port>
			</input>
			<output>
				<port id="2" precision="FP32">
					<dim>1</dim>
					<dim>21</dim>
					<dim>72</dim>
					<dim>72</dim>
				</port>
			</output>
		</layer>
		<layer id="119" name="Constant_67817_compressed" type="Const" version="opset1">
			<data element_type="f16" shape="1, 21, 1, 1" offset="44726" size="42" />
			<output>
				<port id="0" precision="FP16">
					<dim>1</dim>
					<dim>21</dim>
					<dim>1</dim>
					<dim>1</dim>
				</port>
			</output>
		</layer>
		<layer id="120" name="Constant_67817" type="Convert" version="opset1">
			<data destination_type="f32" />
			<rt_info>
				<attribute name="decompression" version="0" />
			</rt_info>
			<input>
				<port id="0" precision="FP16">
					<dim>1</dim>
					<dim>21</dim>
					<dim>1</dim>
					<dim>1</dim>
				</port>
			</input>
			<output>
				<port id="1" precision="FP32">
					<dim>1</dim>
					<dim>21</dim>
					<dim>1</dim>
					<dim>1</dim>
				</port>
			</output>
		</layer>
		<layer id="121" name="BatchNormalization_264" type="Add" version="opset1">
			<data auto_broadcast="numpy" />
			<input>
				<port id="0" precision="FP32">
					<dim>1</dim>
					<dim>21</dim>
					<dim>72</dim>
					<dim>72</dim>
				</port>
				<port id="1" precision="FP32">
					<dim>1</dim>
					<dim>21</dim>
					<dim>1</dim>
					<dim>1</dim>
				</port>
			</input>
			<output>
				<port id="2" precision="FP32" names="1513">
					<dim>1</dim>
					<dim>21</dim>
					<dim>72</dim>
					<dim>72</dim>
				</port>
			</output>
		</layer>
		<layer id="122" name="Relu_265" type="ReLU" version="opset1">
			<input>
				<port id="0" precision="FP32">
					<dim>1</dim>
					<dim>21</dim>
					<dim>72</dim>
					<dim>72</dim>
				</port>
			</input>
			<output>
				<port id="1" precision="FP32" names="1514">
					<dim>1</dim>
					<dim>21</dim>
					<dim>72</dim>
					<dim>72</dim>
				</port>
			</output>
		</layer>
		<layer id="123" name="Multiply_69130_compressed" type="Const" version="opset1">
			<data element_type="f16" shape="21, 21, 3, 3" offset="44768" size="7938" />
			<output>
				<port id="0" precision="FP16">
					<dim>21</dim>
					<dim>21</dim>
					<dim>3</dim>
					<dim>3</dim>
				</port>
			</output>
		</layer>
		<layer id="124" name="Multiply_69130" type="Convert" version="opset1">
			<data destination_type="f32" />
			<rt_info>
				<attribute name="decompression" version="0" />
			</rt_info>
			<input>
				<port id="0" precision="FP16">
					<dim>21</dim>
					<dim>21</dim>
					<dim>3</dim>
					<dim>3</dim>
				</port>
			</input>
			<output>
				<port id="1" precision="FP32">
					<dim>21</dim>
					<dim>21</dim>
					<dim>3</dim>
					<dim>3</dim>
				</port>
			</output>
		</layer>
		<layer id="125" name="Multiply_67819" type="Convolution" version="opset1">
			<data strides="1, 1" dilations="1, 1" pads_begin="1, 1" pads_end="1, 1" auto_pad="explicit" />
			<input>
				<port id="0" precision="FP32">
					<dim>1</dim>
					<dim>21</dim>
					<dim>72</dim>
					<dim>72</dim>
				</port>
				<port id="1" precision="FP32">
					<dim>21</dim>
					<dim>21</dim>
					<dim>3</dim>
					<dim>3</dim>
				</port>
			</input>
			<output>
				<port id="2" precision="FP32">
					<dim>1</dim>
					<dim>21</dim>
					<dim>72</dim>
					<dim>72</dim>
				</port>
			</output>
		</layer>
		<layer id="126" name="Constant_67824_compressed" type="Const" version="opset1">
			<data element_type="f16" shape="1, 21, 1, 1" offset="52706" size="42" />
			<output>
				<port id="0" precision="FP16">
					<dim>1</dim>
					<dim>21</dim>
					<dim>1</dim>
					<dim>1</dim>
				</port>
			</output>
		</layer>
		<layer id="127" name="Constant_67824" type="Convert" version="opset1">
			<data destination_type="f32" />
			<rt_info>
				<attribute name="decompression" version="0" />
			</rt_info>
			<input>
				<port id="0" precision="FP16">
					<dim>1</dim>
					<dim>21</dim>
					<dim>1</dim>
					<dim>1</dim>
				</port>
			</input>
			<output>
				<port id="1" precision="FP32">
					<dim>1</dim>
					<dim>21</dim>
					<dim>1</dim>
					<dim>1</dim>
				</port>
			</output>
		</layer>
		<layer id="128" name="BatchNormalization_276" type="Add" version="opset1">
			<data auto_broadcast="numpy" />
			<input>
				<port id="0" precision="FP32">
					<dim>1</dim>
					<dim>21</dim>
					<dim>72</dim>
					<dim>72</dim>
				</port>
				<port id="1" precision="FP32">
					<dim>1</dim>
					<dim>21</dim>
					<dim>1</dim>
					<dim>1</dim>
				</port>
			</input>
			<output>
				<port id="2" precision="FP32" names="1525">
					<dim>1</dim>
					<dim>21</dim>
					<dim>72</dim>
					<dim>72</dim>
				</port>
			</output>
		</layer>
		<layer id="129" name="Relu_277" type="ReLU" version="opset1">
			<input>
				<port id="0" precision="FP32">
					<dim>1</dim>
					<dim>21</dim>
					<dim>72</dim>
					<dim>72</dim>
				</port>
			</input>
			<output>
				<port id="1" precision="FP32" names="1526">
					<dim>1</dim>
					<dim>21</dim>
					<dim>72</dim>
					<dim>72</dim>
				</port>
			</output>
		</layer>
		<layer id="130" name="Multiply_69139_compressed" type="Const" version="opset1">
			<data element_type="f16" shape="21, 21, 3, 3" offset="52748" size="7938" />
			<output>
				<port id="0" precision="FP16">
					<dim>21</dim>
					<dim>21</dim>
					<dim>3</dim>
					<dim>3</dim>
				</port>
			</output>
		</layer>
		<layer id="131" name="Multiply_69139" type="Convert" version="opset1">
			<data destination_type="f32" />
			<rt_info>
				<attribute name="decompression" version="0" />
			</rt_info>
			<input>
				<port id="0" precision="FP16">
					<dim>21</dim>
					<dim>21</dim>
					<dim>3</dim>
					<dim>3</dim>
				</port>
			</input>
			<output>
				<port id="1" precision="FP32">
					<dim>21</dim>
					<dim>21</dim>
					<dim>3</dim>
					<dim>3</dim>
				</port>
			</output>
		</layer>
		<layer id="132" name="Multiply_67826" type="Convolution" version="opset1">
			<data strides="1, 1" dilations="1, 1" pads_begin="1, 1" pads_end="1, 1" auto_pad="explicit" />
			<input>
				<port id="0" precision="FP32">
					<dim>1</dim>
					<dim>21</dim>
					<dim>72</dim>
					<dim>72</dim>
				</port>
				<port id="1" precision="FP32">
					<dim>21</dim>
					<dim>21</dim>
					<dim>3</dim>
					<dim>3</dim>
				</port>
			</input>
			<output>
				<port id="2" precision="FP32">
					<dim>1</dim>
					<dim>21</dim>
					<dim>72</dim>
					<dim>72</dim>
				</port>
			</output>
		</layer>
		<layer id="133" name="Constant_67831_compressed" type="Const" version="opset1">
			<data element_type="f16" shape="1, 21, 1, 1" offset="60686" size="42" />
			<output>
				<port id="0" precision="FP16">
					<dim>1</dim>
					<dim>21</dim>
					<dim>1</dim>
					<dim>1</dim>
				</port>
			</output>
		</layer>
		<layer id="134" name="Constant_67831" type="Convert" version="opset1">
			<data destination_type="f32" />
			<rt_info>
				<attribute name="decompression" version="0" />
			</rt_info>
			<input>
				<port id="0" precision="FP16">
					<dim>1</dim>
					<dim>21</dim>
					<dim>1</dim>
					<dim>1</dim>
				</port>
			</input>
			<output>
				<port id="1" precision="FP32">
					<dim>1</dim>
					<dim>21</dim>
					<dim>1</dim>
					<dim>1</dim>
				</port>
			</output>
		</layer>
		<layer id="135" name="BatchNormalization_279" type="Add" version="opset1">
			<data auto_broadcast="numpy" />
			<input>
				<port id="0" precision="FP32">
					<dim>1</dim>
					<dim>21</dim>
					<dim>72</dim>
					<dim>72</dim>
				</port>
				<port id="1" precision="FP32">
					<dim>1</dim>
					<dim>21</dim>
					<dim>1</dim>
					<dim>1</dim>
				</port>
			</input>
			<output>
				<port id="2" precision="FP32" names="1528">
					<dim>1</dim>
					<dim>21</dim>
					<dim>72</dim>
					<dim>72</dim>
				</port>
			</output>
		</layer>
		<layer id="136" name="Add_280" type="Add" version="opset1">
			<data auto_broadcast="numpy" />
			<input>
				<port id="0" precision="FP32">
					<dim>1</dim>
					<dim>21</dim>
					<dim>72</dim>
					<dim>72</dim>
				</port>
				<port id="1" precision="FP32">
					<dim>1</dim>
					<dim>21</dim>
					<dim>72</dim>
					<dim>72</dim>
				</port>
			</input>
			<output>
				<port id="2" precision="FP32" names="1529">
					<dim>1</dim>
					<dim>21</dim>
					<dim>72</dim>
					<dim>72</dim>
				</port>
			</output>
		</layer>
		<layer id="137" name="Relu_281" type="ReLU" version="opset1">
			<input>
				<port id="0" precision="FP32">
					<dim>1</dim>
					<dim>21</dim>
					<dim>72</dim>
					<dim>72</dim>
				</port>
			</input>
			<output>
				<port id="1" precision="FP32" names="1530">
					<dim>1</dim>
					<dim>21</dim>
					<dim>72</dim>
					<dim>72</dim>
				</port>
			</output>
		</layer>
		<layer id="138" name="Multiply_69148_compressed" type="Const" version="opset1">
			<data element_type="f16" shape="21, 21, 3, 3" offset="60728" size="7938" />
			<output>
				<port id="0" precision="FP16">
					<dim>21</dim>
					<dim>21</dim>
					<dim>3</dim>
					<dim>3</dim>
				</port>
			</output>
		</layer>
		<layer id="139" name="Multiply_69148" type="Convert" version="opset1">
			<data destination_type="f32" />
			<rt_info>
				<attribute name="decompression" version="0" />
			</rt_info>
			<input>
				<port id="0" precision="FP16">
					<dim>21</dim>
					<dim>21</dim>
					<dim>3</dim>
					<dim>3</dim>
				</port>
			</input>
			<output>
				<port id="1" precision="FP32">
					<dim>21</dim>
					<dim>21</dim>
					<dim>3</dim>
					<dim>3</dim>
				</port>
			</output>
		</layer>
		<layer id="140" name="Multiply_67833" type="Convolution" version="opset1">
			<data strides="1, 1" dilations="1, 1" pads_begin="1, 1" pads_end="1, 1" auto_pad="explicit" />
			<input>
				<port id="0" precision="FP32">
					<dim>1</dim>
					<dim>21</dim>
					<dim>72</dim>
					<dim>72</dim>
				</port>
				<port id="1" precision="FP32">
					<dim>21</dim>
					<dim>21</dim>
					<dim>3</dim>
					<dim>3</dim>
				</port>
			</input>
			<output>
				<port id="2" precision="FP32">
					<dim>1</dim>
					<dim>21</dim>
					<dim>72</dim>
					<dim>72</dim>
				</port>
			</output>
		</layer>
		<layer id="141" name="Constant_67838_compressed" type="Const" version="opset1">
			<data element_type="f16" shape="1, 21, 1, 1" offset="68666" size="42" />
			<output>
				<port id="0" precision="FP16">
					<dim>1</dim>
					<dim>21</dim>
					<dim>1</dim>
					<dim>1</dim>
				</port>
			</output>
		</layer>
		<layer id="142" name="Constant_67838" type="Convert" version="opset1">
			<data destination_type="f32" />
			<rt_info>
				<attribute name="decompression" version="0" />
			</rt_info>
			<input>
				<port id="0" precision="FP16">
					<dim>1</dim>
					<dim>21</dim>
					<dim>1</dim>
					<dim>1</dim>
				</port>
			</input>
			<output>
				<port id="1" precision="FP32">
					<dim>1</dim>
					<dim>21</dim>
					<dim>1</dim>
					<dim>1</dim>
				</port>
			</output>
		</layer>
		<layer id="143" name="BatchNormalization_283" type="Add" version="opset1">
			<data auto_broadcast="numpy" />
			<input>
				<port id="0" precision="FP32">
					<dim>1</dim>
					<dim>21</dim>
					<dim>72</dim>
					<dim>72</dim>
				</port>
				<port id="1" precision="FP32">
					<dim>1</dim>
					<dim>21</dim>
					<dim>1</dim>
					<dim>1</dim>
				</port>
			</input>
			<output>
				<port id="2" precision="FP32" names="1532">
					<dim>1</dim>
					<dim>21</dim>
					<dim>72</dim>
					<dim>72</dim>
				</port>
			</output>
		</layer>
		<layer id="144" name="Relu_284" type="ReLU" version="opset1">
			<input>
				<port id="0" precision="FP32">
					<dim>1</dim>
					<dim>21</dim>
					<dim>72</dim>
					<dim>72</dim>
				</port>
			</input>
			<output>
				<port id="1" precision="FP32" names="1533">
					<dim>1</dim>
					<dim>21</dim>
					<dim>72</dim>
					<dim>72</dim>
				</port>
			</output>
		</layer>
		<layer id="145" name="Multiply_69157_compressed" type="Const" version="opset1">
			<data element_type="f16" shape="21, 21, 3, 3" offset="68708" size="7938" />
			<output>
				<port id="0" precision="FP16">
					<dim>21</dim>
					<dim>21</dim>
					<dim>3</dim>
					<dim>3</dim>
				</port>
			</output>
		</layer>
		<layer id="146" name="Multiply_69157" type="Convert" version="opset1">
			<data destination_type="f32" />
			<rt_info>
				<attribute name="decompression" version="0" />
			</rt_info>
			<input>
				<port id="0" precision="FP16">
					<dim>21</dim>
					<dim>21</dim>
					<dim>3</dim>
					<dim>3</dim>
				</port>
			</input>
			<output>
				<port id="1" precision="FP32">
					<dim>21</dim>
					<dim>21</dim>
					<dim>3</dim>
					<dim>3</dim>
				</port>
			</output>
		</layer>
		<layer id="147" name="Multiply_67840" type="Convolution" version="opset1">
			<data strides="1, 1" dilations="1, 1" pads_begin="1, 1" pads_end="1, 1" auto_pad="explicit" />
			<input>
				<port id="0" precision="FP32">
					<dim>1</dim>
					<dim>21</dim>
					<dim>72</dim>
					<dim>72</dim>
				</port>
				<port id="1" precision="FP32">
					<dim>21</dim>
					<dim>21</dim>
					<dim>3</dim>
					<dim>3</dim>
				</port>
			</input>
			<output>
				<port id="2" precision="FP32">
					<dim>1</dim>
					<dim>21</dim>
					<dim>72</dim>
					<dim>72</dim>
				</port>
			</output>
		</layer>
		<layer id="148" name="Constant_67845_compressed" type="Const" version="opset1">
			<data element_type="f16" shape="1, 21, 1, 1" offset="76646" size="42" />
			<output>
				<port id="0" precision="FP16">
					<dim>1</dim>
					<dim>21</dim>
					<dim>1</dim>
					<dim>1</dim>
				</port>
			</output>
		</layer>
		<layer id="149" name="Constant_67845" type="Convert" version="opset1">
			<data destination_type="f32" />
			<rt_info>
				<attribute name="decompression" version="0" />
			</rt_info>
			<input>
				<port id="0" precision="FP16">
					<dim>1</dim>
					<dim>21</dim>
					<dim>1</dim>
					<dim>1</dim>
				</port>
			</input>
			<output>
				<port id="1" precision="FP32">
					<dim>1</dim>
					<dim>21</dim>
					<dim>1</dim>
					<dim>1</dim>
				</port>
			</output>
		</layer>
		<layer id="150" name="BatchNormalization_286" type="Add" version="opset1">
			<data auto_broadcast="numpy" />
			<input>
				<port id="0" precision="FP32">
					<dim>1</dim>
					<dim>21</dim>
					<dim>72</dim>
					<dim>72</dim>
				</port>
				<port id="1" precision="FP32">
					<dim>1</dim>
					<dim>21</dim>
					<dim>1</dim>
					<dim>1</dim>
				</port>
			</input>
			<output>
				<port id="2" precision="FP32" names="1535">
					<dim>1</dim>
					<dim>21</dim>
					<dim>72</dim>
					<dim>72</dim>
				</port>
			</output>
		</layer>
		<layer id="151" name="Add_287" type="Add" version="opset1">
			<data auto_broadcast="numpy" />
			<input>
				<port id="0" precision="FP32">
					<dim>1</dim>
					<dim>21</dim>
					<dim>72</dim>
					<dim>72</dim>
				</port>
				<port id="1" precision="FP32">
					<dim>1</dim>
					<dim>21</dim>
					<dim>72</dim>
					<dim>72</dim>
				</port>
			</input>
			<output>
				<port id="2" precision="FP32" names="1536">
					<dim>1</dim>
					<dim>21</dim>
					<dim>72</dim>
					<dim>72</dim>
				</port>
			</output>
		</layer>
		<layer id="152" name="Relu_288" type="ReLU" version="opset1">
			<input>
				<port id="0" precision="FP32">
					<dim>1</dim>
					<dim>21</dim>
					<dim>72</dim>
					<dim>72</dim>
				</port>
			</input>
			<output>
				<port id="1" precision="FP32" names="1537,1553">
					<dim>1</dim>
					<dim>21</dim>
					<dim>72</dim>
					<dim>72</dim>
				</port>
			</output>
		</layer>
		<layer id="153" name="Multiply_69166_compressed" type="Const" version="opset1">
			<data element_type="f16" shape="144, 24, 1, 1" offset="76688" size="6912" />
			<output>
				<port id="0" precision="FP16">
					<dim>144</dim>
					<dim>24</dim>
					<dim>1</dim>
					<dim>1</dim>
				</port>
			</output>
		</layer>
		<layer id="154" name="Multiply_69166" type="Convert" version="opset1">
			<data destination_type="f32" />
			<rt_info>
				<attribute name="decompression" version="0" />
			</rt_info>
			<input>
				<port id="0" precision="FP16">
					<dim>144</dim>
					<dim>24</dim>
					<dim>1</dim>
					<dim>1</dim>
				</port>
			</input>
			<output>
				<port id="1" precision="FP32">
					<dim>144</dim>
					<dim>24</dim>
					<dim>1</dim>
					<dim>1</dim>
				</port>
			</output>
		</layer>
		<layer id="155" name="Multiply_67847" type="Convolution" version="opset1">
			<data strides="1, 1" dilations="1, 1" pads_begin="0, 0" pads_end="0, 0" auto_pad="explicit" />
			<input>
				<port id="0" precision="FP32">
					<dim>1</dim>
					<dim>24</dim>
					<dim>72</dim>
					<dim>72</dim>
				</port>
				<port id="1" precision="FP32">
					<dim>144</dim>
					<dim>24</dim>
					<dim>1</dim>
					<dim>1</dim>
				</port>
			</input>
			<output>
				<port id="2" precision="FP32">
					<dim>1</dim>
					<dim>144</dim>
					<dim>72</dim>
					<dim>72</dim>
				</port>
			</output>
		</layer>
		<layer id="156" name="Constant_67852_compressed" type="Const" version="opset1">
			<data element_type="f16" shape="1, 144, 1, 1" offset="83600" size="288" />
			<output>
				<port id="0" precision="FP16">
					<dim>1</dim>
					<dim>144</dim>
					<dim>1</dim>
					<dim>1</dim>
				</port>
			</output>
		</layer>
		<layer id="157" name="Constant_67852" type="Convert" version="opset1">
			<data destination_type="f32" />
			<rt_info>
				<attribute name="decompression" version="0" />
			</rt_info>
			<input>
				<port id="0" precision="FP16">
					<dim>1</dim>
					<dim>144</dim>
					<dim>1</dim>
					<dim>1</dim>
				</port>
			</input>
			<output>
				<port id="1" precision="FP32">
					<dim>1</dim>
					<dim>144</dim>
					<dim>1</dim>
					<dim>1</dim>
				</port>
			</output>
		</layer>
		<layer id="158" name="BatchNormalization_53" type="Add" version="opset1">
			<data auto_broadcast="numpy" />
			<input>
				<port id="0" precision="FP32">
					<dim>1</dim>
					<dim>144</dim>
					<dim>72</dim>
					<dim>72</dim>
				</port>
				<port id="1" precision="FP32">
					<dim>1</dim>
					<dim>144</dim>
					<dim>1</dim>
					<dim>1</dim>
				</port>
			</input>
			<output>
				<port id="2" precision="FP32" names="1302">
					<dim>1</dim>
					<dim>144</dim>
					<dim>72</dim>
					<dim>72</dim>
				</port>
			</output>
		</layer>
		<layer id="159" name="Mul_55" type="Swish" version="opset4">
			<input>
				<port id="0" precision="FP32">
					<dim>1</dim>
					<dim>144</dim>
					<dim>72</dim>
					<dim>72</dim>
				</port>
			</input>
			<output>
				<port id="1" precision="FP32" names="1304">
					<dim>1</dim>
					<dim>144</dim>
					<dim>72</dim>
					<dim>72</dim>
				</port>
			</output>
		</layer>
		<layer id="160" name="Multiply_69175_compressed" type="Const" version="opset1">
			<data element_type="f16" shape="144, 1, 1, 5, 5" offset="83888" size="7200" />
			<output>
				<port id="0" precision="FP16">
					<dim>144</dim>
					<dim>1</dim>
					<dim>1</dim>
					<dim>5</dim>
					<dim>5</dim>
				</port>
			</output>
		</layer>
		<layer id="161" name="Multiply_69175" type="Convert" version="opset1">
			<data destination_type="f32" />
			<rt_info>
				<attribute name="decompression" version="0" />
			</rt_info>
			<input>
				<port id="0" precision="FP16">
					<dim>144</dim>
					<dim>1</dim>
					<dim>1</dim>
					<dim>5</dim>
					<dim>5</dim>
				</port>
			</input>
			<output>
				<port id="1" precision="FP32">
					<dim>144</dim>
					<dim>1</dim>
					<dim>1</dim>
					<dim>5</dim>
					<dim>5</dim>
				</port>
			</output>
		</layer>
		<layer id="162" name="Multiply_67854" type="GroupConvolution" version="opset1">
			<data strides="2, 2" pads_begin="2, 2" pads_end="2, 2" dilations="1, 1" auto_pad="explicit" />
			<input>
				<port id="0" precision="FP32">
					<dim>1</dim>
					<dim>144</dim>
					<dim>72</dim>
					<dim>72</dim>
				</port>
				<port id="1" precision="FP32">
					<dim>144</dim>
					<dim>1</dim>
					<dim>1</dim>
					<dim>5</dim>
					<dim>5</dim>
				</port>
			</input>
			<output>
				<port id="2" precision="FP32" names="1305">
					<dim>1</dim>
					<dim>144</dim>
					<dim>36</dim>
					<dim>36</dim>
				</port>
			</output>
		</layer>
		<layer id="163" name="Constant_67859_compressed" type="Const" version="opset1">
			<data element_type="f16" shape="1, 144, 1, 1" offset="91088" size="288" />
			<output>
				<port id="0" precision="FP16">
					<dim>1</dim>
					<dim>144</dim>
					<dim>1</dim>
					<dim>1</dim>
				</port>
			</output>
		</layer>
		<layer id="164" name="Constant_67859" type="Convert" version="opset1">
			<data destination_type="f32" />
			<rt_info>
				<attribute name="decompression" version="0" />
			</rt_info>
			<input>
				<port id="0" precision="FP16">
					<dim>1</dim>
					<dim>144</dim>
					<dim>1</dim>
					<dim>1</dim>
				</port>
			</input>
			<output>
				<port id="1" precision="FP32">
					<dim>1</dim>
					<dim>144</dim>
					<dim>1</dim>
					<dim>1</dim>
				</port>
			</output>
		</layer>
		<layer id="165" name="BatchNormalization_57" type="Add" version="opset1">
			<data auto_broadcast="numpy" />
			<input>
				<port id="0" precision="FP32">
					<dim>1</dim>
					<dim>144</dim>
					<dim>36</dim>
					<dim>36</dim>
				</port>
				<port id="1" precision="FP32">
					<dim>1</dim>
					<dim>144</dim>
					<dim>1</dim>
					<dim>1</dim>
				</port>
			</input>
			<output>
				<port id="2" precision="FP32" names="1306">
					<dim>1</dim>
					<dim>144</dim>
					<dim>36</dim>
					<dim>36</dim>
				</port>
			</output>
		</layer>
		<layer id="166" name="Mul_59" type="Swish" version="opset4">
			<input>
				<port id="0" precision="FP32">
					<dim>1</dim>
					<dim>144</dim>
					<dim>36</dim>
					<dim>36</dim>
				</port>
			</input>
			<output>
				<port id="1" precision="FP32" names="1308">
					<dim>1</dim>
					<dim>144</dim>
					<dim>36</dim>
					<dim>36</dim>
				</port>
			</output>
		</layer>
		<layer id="167" name="Range_1723" type="Const" version="opset1">
			<data element_type="i64" shape="2" offset="1830" size="16" />
			<output>
				<port id="0" precision="I64">
					<dim>2</dim>
				</port>
			</output>
		</layer>
		<layer id="168" name="GlobalAveragePool_60" type="ReduceMean" version="opset1">
			<data keep_dims="true" />
			<input>
				<port id="0" precision="FP32">
					<dim>1</dim>
					<dim>144</dim>
					<dim>36</dim>
					<dim>36</dim>
				</port>
				<port id="1" precision="I64">
					<dim>2</dim>
				</port>
			</input>
			<output>
				<port id="2" precision="FP32" names="1309">
					<dim>1</dim>
					<dim>144</dim>
					<dim>1</dim>
					<dim>1</dim>
				</port>
			</output>
		</layer>
		<layer id="169" name="backbone.module.features.stage3.unit1.se.conv1.weight_compressed" type="Const" version="opset1">
			<data element_type="f16" shape="6, 144, 1, 1" offset="91376" size="1728" />
			<output>
				<port id="0" precision="FP16">
					<dim>6</dim>
					<dim>144</dim>
					<dim>1</dim>
					<dim>1</dim>
				</port>
			</output>
		</layer>
		<layer id="170" name="backbone.module.features.stage3.unit1.se.conv1.weight" type="Convert" version="opset1">
			<data destination_type="f32" />
			<rt_info>
				<attribute name="decompression" version="0" />
			</rt_info>
			<input>
				<port id="0" precision="FP16">
					<dim>6</dim>
					<dim>144</dim>
					<dim>1</dim>
					<dim>1</dim>
				</port>
			</input>
			<output>
				<port id="1" precision="FP32" names="backbone.module.features.stage3.unit1.se.conv1.weight">
					<dim>6</dim>
					<dim>144</dim>
					<dim>1</dim>
					<dim>1</dim>
				</port>
			</output>
		</layer>
		<layer id="171" name="Conv_61/WithoutBiases" type="Convolution" version="opset1">
			<data strides="1, 1" dilations="1, 1" pads_begin="0, 0" pads_end="0, 0" auto_pad="explicit" />
			<input>
				<port id="0" precision="FP32">
					<dim>1</dim>
					<dim>144</dim>
					<dim>1</dim>
					<dim>1</dim>
				</port>
				<port id="1" precision="FP32">
					<dim>6</dim>
					<dim>144</dim>
					<dim>1</dim>
					<dim>1</dim>
				</port>
			</input>
			<output>
				<port id="2" precision="FP32">
					<dim>1</dim>
					<dim>6</dim>
					<dim>1</dim>
					<dim>1</dim>
				</port>
			</output>
		</layer>
		<layer id="172" name="Reshape_1768_compressed" type="Const" version="opset1">
			<data element_type="f16" shape="1, 6, 1, 1" offset="93104" size="12" />
			<output>
				<port id="0" precision="FP16">
					<dim>1</dim>
					<dim>6</dim>
					<dim>1</dim>
					<dim>1</dim>
				</port>
			</output>
		</layer>
		<layer id="173" name="Reshape_1768" type="Convert" version="opset1">
			<data destination_type="f32" />
			<rt_info>
				<attribute name="decompression" version="0" />
			</rt_info>
			<input>
				<port id="0" precision="FP16">
					<dim>1</dim>
					<dim>6</dim>
					<dim>1</dim>
					<dim>1</dim>
				</port>
			</input>
			<output>
				<port id="1" precision="FP32">
					<dim>1</dim>
					<dim>6</dim>
					<dim>1</dim>
					<dim>1</dim>
				</port>
			</output>
		</layer>
		<layer id="174" name="Conv_61" type="Add" version="opset1">
			<data auto_broadcast="numpy" />
			<input>
				<port id="0" precision="FP32">
					<dim>1</dim>
					<dim>6</dim>
					<dim>1</dim>
					<dim>1</dim>
				</port>
				<port id="1" precision="FP32">
					<dim>1</dim>
					<dim>6</dim>
					<dim>1</dim>
					<dim>1</dim>
				</port>
			</input>
			<output>
				<port id="2" precision="FP32" names="1310">
					<dim>1</dim>
					<dim>6</dim>
					<dim>1</dim>
					<dim>1</dim>
				</port>
			</output>
		</layer>
		<layer id="175" name="Mul_63" type="Swish" version="opset4">
			<input>
				<port id="0" precision="FP32">
					<dim>1</dim>
					<dim>6</dim>
					<dim>1</dim>
					<dim>1</dim>
				</port>
			</input>
			<output>
				<port id="1" precision="FP32" names="1312">
					<dim>1</dim>
					<dim>6</dim>
					<dim>1</dim>
					<dim>1</dim>
				</port>
			</output>
		</layer>
		<layer id="176" name="backbone.module.features.stage3.unit1.se.conv2.weight_compressed" type="Const" version="opset1">
			<data element_type="f16" shape="144, 6, 1, 1" offset="93116" size="1728" />
			<output>
				<port id="0" precision="FP16">
					<dim>144</dim>
					<dim>6</dim>
					<dim>1</dim>
					<dim>1</dim>
				</port>
			</output>
		</layer>
		<layer id="177" name="backbone.module.features.stage3.unit1.se.conv2.weight" type="Convert" version="opset1">
			<data destination_type="f32" />
			<rt_info>
				<attribute name="decompression" version="0" />
			</rt_info>
			<input>
				<port id="0" precision="FP16">
					<dim>144</dim>
					<dim>6</dim>
					<dim>1</dim>
					<dim>1</dim>
				</port>
			</input>
			<output>
				<port id="1" precision="FP32" names="backbone.module.features.stage3.unit1.se.conv2.weight">
					<dim>144</dim>
					<dim>6</dim>
					<dim>1</dim>
					<dim>1</dim>
				</port>
			</output>
		</layer>
		<layer id="178" name="Conv_64/WithoutBiases" type="Convolution" version="opset1">
			<data strides="1, 1" dilations="1, 1" pads_begin="0, 0" pads_end="0, 0" auto_pad="explicit" />
			<input>
				<port id="0" precision="FP32">
					<dim>1</dim>
					<dim>6</dim>
					<dim>1</dim>
					<dim>1</dim>
				</port>
				<port id="1" precision="FP32">
					<dim>144</dim>
					<dim>6</dim>
					<dim>1</dim>
					<dim>1</dim>
				</port>
			</input>
			<output>
				<port id="2" precision="FP32">
					<dim>1</dim>
					<dim>144</dim>
					<dim>1</dim>
					<dim>1</dim>
				</port>
			</output>
		</layer>
		<layer id="179" name="Reshape_1818_compressed" type="Const" version="opset1">
			<data element_type="f16" shape="1, 144, 1, 1" offset="94844" size="288" />
			<output>
				<port id="0" precision="FP16">
					<dim>1</dim>
					<dim>144</dim>
					<dim>1</dim>
					<dim>1</dim>
				</port>
			</output>
		</layer>
		<layer id="180" name="Reshape_1818" type="Convert" version="opset1">
			<data destination_type="f32" />
			<rt_info>
				<attribute name="decompression" version="0" />
			</rt_info>
			<input>
				<port id="0" precision="FP16">
					<dim>1</dim>
					<dim>144</dim>
					<dim>1</dim>
					<dim>1</dim>
				</port>
			</input>
			<output>
				<port id="1" precision="FP32">
					<dim>1</dim>
					<dim>144</dim>
					<dim>1</dim>
					<dim>1</dim>
				</port>
			</output>
		</layer>
		<layer id="181" name="Conv_64" type="Add" version="opset1">
			<data auto_broadcast="numpy" />
			<input>
				<port id="0" precision="FP32">
					<dim>1</dim>
					<dim>144</dim>
					<dim>1</dim>
					<dim>1</dim>
				</port>
				<port id="1" precision="FP32">
					<dim>1</dim>
					<dim>144</dim>
					<dim>1</dim>
					<dim>1</dim>
				</port>
			</input>
			<output>
				<port id="2" precision="FP32" names="1313">
					<dim>1</dim>
					<dim>144</dim>
					<dim>1</dim>
					<dim>1</dim>
				</port>
			</output>
		</layer>
		<layer id="182" name="Sigmoid_65" type="Sigmoid" version="opset1">
			<input>
				<port id="0" precision="FP32">
					<dim>1</dim>
					<dim>144</dim>
					<dim>1</dim>
					<dim>1</dim>
				</port>
			</input>
			<output>
				<port id="1" precision="FP32" names="1314">
					<dim>1</dim>
					<dim>144</dim>
					<dim>1</dim>
					<dim>1</dim>
				</port>
			</output>
		</layer>
		<layer id="183" name="Mul_66" type="Multiply" version="opset1">
			<data auto_broadcast="numpy" />
			<input>
				<port id="0" precision="FP32">
					<dim>1</dim>
					<dim>144</dim>
					<dim>36</dim>
					<dim>36</dim>
				</port>
				<port id="1" precision="FP32">
					<dim>1</dim>
					<dim>144</dim>
					<dim>1</dim>
					<dim>1</dim>
				</port>
			</input>
			<output>
				<port id="2" precision="FP32" names="1315">
					<dim>1</dim>
					<dim>144</dim>
					<dim>36</dim>
					<dim>36</dim>
				</port>
			</output>
		</layer>
		<layer id="184" name="Multiply_69183_compressed" type="Const" version="opset1">
			<data element_type="f16" shape="32, 144, 1, 1" offset="95132" size="9216" />
			<output>
				<port id="0" precision="FP16">
					<dim>32</dim>
					<dim>144</dim>
					<dim>1</dim>
					<dim>1</dim>
				</port>
			</output>
		</layer>
		<layer id="185" name="Multiply_69183" type="Convert" version="opset1">
			<data destination_type="f32" />
			<rt_info>
				<attribute name="decompression" version="0" />
			</rt_info>
			<input>
				<port id="0" precision="FP16">
					<dim>32</dim>
					<dim>144</dim>
					<dim>1</dim>
					<dim>1</dim>
				</port>
			</input>
			<output>
				<port id="1" precision="FP32">
					<dim>32</dim>
					<dim>144</dim>
					<dim>1</dim>
					<dim>1</dim>
				</port>
			</output>
		</layer>
		<layer id="186" name="Multiply_67861" type="Convolution" version="opset1">
			<data strides="1, 1" dilations="1, 1" pads_begin="0, 0" pads_end="0, 0" auto_pad="explicit" />
			<input>
				<port id="0" precision="FP32">
					<dim>1</dim>
					<dim>144</dim>
					<dim>36</dim>
					<dim>36</dim>
				</port>
				<port id="1" precision="FP32">
					<dim>32</dim>
					<dim>144</dim>
					<dim>1</dim>
					<dim>1</dim>
				</port>
			</input>
			<output>
				<port id="2" precision="FP32">
					<dim>1</dim>
					<dim>32</dim>
					<dim>36</dim>
					<dim>36</dim>
				</port>
			</output>
		</layer>
		<layer id="187" name="Constant_67866_compressed" type="Const" version="opset1">
			<data element_type="f16" shape="1, 32, 1, 1" offset="104348" size="64" />
			<output>
				<port id="0" precision="FP16">
					<dim>1</dim>
					<dim>32</dim>
					<dim>1</dim>
					<dim>1</dim>
				</port>
			</output>
		</layer>
		<layer id="188" name="Constant_67866" type="Convert" version="opset1">
			<data destination_type="f32" />
			<rt_info>
				<attribute name="decompression" version="0" />
			</rt_info>
			<input>
				<port id="0" precision="FP16">
					<dim>1</dim>
					<dim>32</dim>
					<dim>1</dim>
					<dim>1</dim>
				</port>
			</input>
			<output>
				<port id="1" precision="FP32">
					<dim>1</dim>
					<dim>32</dim>
					<dim>1</dim>
					<dim>1</dim>
				</port>
			</output>
		</layer>
		<layer id="189" name="BatchNormalization_68" type="Add" version="opset1">
			<data auto_broadcast="numpy" />
			<input>
				<port id="0" precision="FP32">
					<dim>1</dim>
					<dim>32</dim>
					<dim>36</dim>
					<dim>36</dim>
				</port>
				<port id="1" precision="FP32">
					<dim>1</dim>
					<dim>32</dim>
					<dim>1</dim>
					<dim>1</dim>
				</port>
			</input>
			<output>
				<port id="2" precision="FP32" names="1317">
					<dim>1</dim>
					<dim>32</dim>
					<dim>36</dim>
					<dim>36</dim>
				</port>
			</output>
		</layer>
		<layer id="190" name="Multiply_69192_compressed" type="Const" version="opset1">
			<data element_type="f16" shape="192, 32, 1, 1" offset="104412" size="12288" />
			<output>
				<port id="0" precision="FP16">
					<dim>192</dim>
					<dim>32</dim>
					<dim>1</dim>
					<dim>1</dim>
				</port>
			</output>
		</layer>
		<layer id="191" name="Multiply_69192" type="Convert" version="opset1">
			<data destination_type="f32" />
			<rt_info>
				<attribute name="decompression" version="0" />
			</rt_info>
			<input>
				<port id="0" precision="FP16">
					<dim>192</dim>
					<dim>32</dim>
					<dim>1</dim>
					<dim>1</dim>
				</port>
			</input>
			<output>
				<port id="1" precision="FP32">
					<dim>192</dim>
					<dim>32</dim>
					<dim>1</dim>
					<dim>1</dim>
				</port>
			</output>
		</layer>
		<layer id="192" name="Multiply_67868" type="Convolution" version="opset1">
			<data strides="1, 1" dilations="1, 1" pads_begin="0, 0" pads_end="0, 0" auto_pad="explicit" />
			<input>
				<port id="0" precision="FP32">
					<dim>1</dim>
					<dim>32</dim>
					<dim>36</dim>
					<dim>36</dim>
				</port>
				<port id="1" precision="FP32">
					<dim>192</dim>
					<dim>32</dim>
					<dim>1</dim>
					<dim>1</dim>
				</port>
			</input>
			<output>
				<port id="2" precision="FP32">
					<dim>1</dim>
					<dim>192</dim>
					<dim>36</dim>
					<dim>36</dim>
				</port>
			</output>
		</layer>
		<layer id="193" name="Constant_67873_compressed" type="Const" version="opset1">
			<data element_type="f16" shape="1, 192, 1, 1" offset="116700" size="384" />
			<output>
				<port id="0" precision="FP16">
					<dim>1</dim>
					<dim>192</dim>
					<dim>1</dim>
					<dim>1</dim>
				</port>
			</output>
		</layer>
		<layer id="194" name="Constant_67873" type="Convert" version="opset1">
			<data destination_type="f32" />
			<rt_info>
				<attribute name="decompression" version="0" />
			</rt_info>
			<input>
				<port id="0" precision="FP16">
					<dim>1</dim>
					<dim>192</dim>
					<dim>1</dim>
					<dim>1</dim>
				</port>
			</input>
			<output>
				<port id="1" precision="FP32">
					<dim>1</dim>
					<dim>192</dim>
					<dim>1</dim>
					<dim>1</dim>
				</port>
			</output>
		</layer>
		<layer id="195" name="BatchNormalization_70" type="Add" version="opset1">
			<data auto_broadcast="numpy" />
			<input>
				<port id="0" precision="FP32">
					<dim>1</dim>
					<dim>192</dim>
					<dim>36</dim>
					<dim>36</dim>
				</port>
				<port id="1" precision="FP32">
					<dim>1</dim>
					<dim>192</dim>
					<dim>1</dim>
					<dim>1</dim>
				</port>
			</input>
			<output>
				<port id="2" precision="FP32" names="1319">
					<dim>1</dim>
					<dim>192</dim>
					<dim>36</dim>
					<dim>36</dim>
				</port>
			</output>
		</layer>
		<layer id="196" name="Mul_72" type="Swish" version="opset4">
			<input>
				<port id="0" precision="FP32">
					<dim>1</dim>
					<dim>192</dim>
					<dim>36</dim>
					<dim>36</dim>
				</port>
			</input>
			<output>
				<port id="1" precision="FP32" names="1321">
					<dim>1</dim>
					<dim>192</dim>
					<dim>36</dim>
					<dim>36</dim>
				</port>
			</output>
		</layer>
		<layer id="197" name="Multiply_69201_compressed" type="Const" version="opset1">
			<data element_type="f16" shape="192, 1, 1, 5, 5" offset="117084" size="9600" />
			<output>
				<port id="0" precision="FP16">
					<dim>192</dim>
					<dim>1</dim>
					<dim>1</dim>
					<dim>5</dim>
					<dim>5</dim>
				</port>
			</output>
		</layer>
		<layer id="198" name="Multiply_69201" type="Convert" version="opset1">
			<data destination_type="f32" />
			<rt_info>
				<attribute name="decompression" version="0" />
			</rt_info>
			<input>
				<port id="0" precision="FP16">
					<dim>192</dim>
					<dim>1</dim>
					<dim>1</dim>
					<dim>5</dim>
					<dim>5</dim>
				</port>
			</input>
			<output>
				<port id="1" precision="FP32">
					<dim>192</dim>
					<dim>1</dim>
					<dim>1</dim>
					<dim>5</dim>
					<dim>5</dim>
				</port>
			</output>
		</layer>
		<layer id="199" name="Multiply_67875" type="GroupConvolution" version="opset1">
			<data strides="1, 1" pads_begin="2, 2" pads_end="2, 2" dilations="1, 1" auto_pad="explicit" />
			<input>
				<port id="0" precision="FP32">
					<dim>1</dim>
					<dim>192</dim>
					<dim>36</dim>
					<dim>36</dim>
				</port>
				<port id="1" precision="FP32">
					<dim>192</dim>
					<dim>1</dim>
					<dim>1</dim>
					<dim>5</dim>
					<dim>5</dim>
				</port>
			</input>
			<output>
				<port id="2" precision="FP32" names="1322">
					<dim>1</dim>
					<dim>192</dim>
					<dim>36</dim>
					<dim>36</dim>
				</port>
			</output>
		</layer>
		<layer id="200" name="Constant_67880_compressed" type="Const" version="opset1">
			<data element_type="f16" shape="1, 192, 1, 1" offset="126684" size="384" />
			<output>
				<port id="0" precision="FP16">
					<dim>1</dim>
					<dim>192</dim>
					<dim>1</dim>
					<dim>1</dim>
				</port>
			</output>
		</layer>
		<layer id="201" name="Constant_67880" type="Convert" version="opset1">
			<data destination_type="f32" />
			<rt_info>
				<attribute name="decompression" version="0" />
			</rt_info>
			<input>
				<port id="0" precision="FP16">
					<dim>1</dim>
					<dim>192</dim>
					<dim>1</dim>
					<dim>1</dim>
				</port>
			</input>
			<output>
				<port id="1" precision="FP32">
					<dim>1</dim>
					<dim>192</dim>
					<dim>1</dim>
					<dim>1</dim>
				</port>
			</output>
		</layer>
		<layer id="202" name="BatchNormalization_74" type="Add" version="opset1">
			<data auto_broadcast="numpy" />
			<input>
				<port id="0" precision="FP32">
					<dim>1</dim>
					<dim>192</dim>
					<dim>36</dim>
					<dim>36</dim>
				</port>
				<port id="1" precision="FP32">
					<dim>1</dim>
					<dim>192</dim>
					<dim>1</dim>
					<dim>1</dim>
				</port>
			</input>
			<output>
				<port id="2" precision="FP32" names="1323">
					<dim>1</dim>
					<dim>192</dim>
					<dim>36</dim>
					<dim>36</dim>
				</port>
			</output>
		</layer>
		<layer id="203" name="Mul_76" type="Swish" version="opset4">
			<input>
				<port id="0" precision="FP32">
					<dim>1</dim>
					<dim>192</dim>
					<dim>36</dim>
					<dim>36</dim>
				</port>
			</input>
			<output>
				<port id="1" precision="FP32" names="1325">
					<dim>1</dim>
					<dim>192</dim>
					<dim>36</dim>
					<dim>36</dim>
				</port>
			</output>
		</layer>
		<layer id="204" name="Range_1940" type="Const" version="opset1">
			<data element_type="i64" shape="2" offset="1830" size="16" />
			<output>
				<port id="0" precision="I64">
					<dim>2</dim>
				</port>
			</output>
		</layer>
		<layer id="205" name="GlobalAveragePool_77" type="ReduceMean" version="opset1">
			<data keep_dims="true" />
			<input>
				<port id="0" precision="FP32">
					<dim>1</dim>
					<dim>192</dim>
					<dim>36</dim>
					<dim>36</dim>
				</port>
				<port id="1" precision="I64">
					<dim>2</dim>
				</port>
			</input>
			<output>
				<port id="2" precision="FP32" names="1326">
					<dim>1</dim>
					<dim>192</dim>
					<dim>1</dim>
					<dim>1</dim>
				</port>
			</output>
		</layer>
		<layer id="206" name="backbone.module.features.stage3.unit2.se.conv1.weight_compressed" type="Const" version="opset1">
			<data element_type="f16" shape="8, 192, 1, 1" offset="127068" size="3072" />
			<output>
				<port id="0" precision="FP16">
					<dim>8</dim>
					<dim>192</dim>
					<dim>1</dim>
					<dim>1</dim>
				</port>
			</output>
		</layer>
		<layer id="207" name="backbone.module.features.stage3.unit2.se.conv1.weight" type="Convert" version="opset1">
			<data destination_type="f32" />
			<rt_info>
				<attribute name="decompression" version="0" />
			</rt_info>
			<input>
				<port id="0" precision="FP16">
					<dim>8</dim>
					<dim>192</dim>
					<dim>1</dim>
					<dim>1</dim>
				</port>
			</input>
			<output>
				<port id="1" precision="FP32" names="backbone.module.features.stage3.unit2.se.conv1.weight">
					<dim>8</dim>
					<dim>192</dim>
					<dim>1</dim>
					<dim>1</dim>
				</port>
			</output>
		</layer>
		<layer id="208" name="Conv_78/WithoutBiases" type="Convolution" version="opset1">
			<data strides="1, 1" dilations="1, 1" pads_begin="0, 0" pads_end="0, 0" auto_pad="explicit" />
			<input>
				<port id="0" precision="FP32">
					<dim>1</dim>
					<dim>192</dim>
					<dim>1</dim>
					<dim>1</dim>
				</port>
				<port id="1" precision="FP32">
					<dim>8</dim>
					<dim>192</dim>
					<dim>1</dim>
					<dim>1</dim>
				</port>
			</input>
			<output>
				<port id="2" precision="FP32">
					<dim>1</dim>
					<dim>8</dim>
					<dim>1</dim>
					<dim>1</dim>
				</port>
			</output>
		</layer>
		<layer id="209" name="Reshape_1985_compressed" type="Const" version="opset1">
			<data element_type="f16" shape="1, 8, 1, 1" offset="130140" size="16" />
			<output>
				<port id="0" precision="FP16">
					<dim>1</dim>
					<dim>8</dim>
					<dim>1</dim>
					<dim>1</dim>
				</port>
			</output>
		</layer>
		<layer id="210" name="Reshape_1985" type="Convert" version="opset1">
			<data destination_type="f32" />
			<rt_info>
				<attribute name="decompression" version="0" />
			</rt_info>
			<input>
				<port id="0" precision="FP16">
					<dim>1</dim>
					<dim>8</dim>
					<dim>1</dim>
					<dim>1</dim>
				</port>
			</input>
			<output>
				<port id="1" precision="FP32">
					<dim>1</dim>
					<dim>8</dim>
					<dim>1</dim>
					<dim>1</dim>
				</port>
			</output>
		</layer>
		<layer id="211" name="Conv_78" type="Add" version="opset1">
			<data auto_broadcast="numpy" />
			<input>
				<port id="0" precision="FP32">
					<dim>1</dim>
					<dim>8</dim>
					<dim>1</dim>
					<dim>1</dim>
				</port>
				<port id="1" precision="FP32">
					<dim>1</dim>
					<dim>8</dim>
					<dim>1</dim>
					<dim>1</dim>
				</port>
			</input>
			<output>
				<port id="2" precision="FP32" names="1327">
					<dim>1</dim>
					<dim>8</dim>
					<dim>1</dim>
					<dim>1</dim>
				</port>
			</output>
		</layer>
		<layer id="212" name="Mul_80" type="Swish" version="opset4">
			<input>
				<port id="0" precision="FP32">
					<dim>1</dim>
					<dim>8</dim>
					<dim>1</dim>
					<dim>1</dim>
				</port>
			</input>
			<output>
				<port id="1" precision="FP32" names="1329">
					<dim>1</dim>
					<dim>8</dim>
					<dim>1</dim>
					<dim>1</dim>
				</port>
			</output>
		</layer>
		<layer id="213" name="backbone.module.features.stage3.unit2.se.conv2.weight_compressed" type="Const" version="opset1">
			<data element_type="f16" shape="192, 8, 1, 1" offset="130156" size="3072" />
			<output>
				<port id="0" precision="FP16">
					<dim>192</dim>
					<dim>8</dim>
					<dim>1</dim>
					<dim>1</dim>
				</port>
			</output>
		</layer>
		<layer id="214" name="backbone.module.features.stage3.unit2.se.conv2.weight" type="Convert" version="opset1">
			<data destination_type="f32" />
			<rt_info>
				<attribute name="decompression" version="0" />
			</rt_info>
			<input>
				<port id="0" precision="FP16">
					<dim>192</dim>
					<dim>8</dim>
					<dim>1</dim>
					<dim>1</dim>
				</port>
			</input>
			<output>
				<port id="1" precision="FP32" names="backbone.module.features.stage3.unit2.se.conv2.weight">
					<dim>192</dim>
					<dim>8</dim>
					<dim>1</dim>
					<dim>1</dim>
				</port>
			</output>
		</layer>
		<layer id="215" name="Conv_81/WithoutBiases" type="Convolution" version="opset1">
			<data strides="1, 1" dilations="1, 1" pads_begin="0, 0" pads_end="0, 0" auto_pad="explicit" />
			<input>
				<port id="0" precision="FP32">
					<dim>1</dim>
					<dim>8</dim>
					<dim>1</dim>
					<dim>1</dim>
				</port>
				<port id="1" precision="FP32">
					<dim>192</dim>
					<dim>8</dim>
					<dim>1</dim>
					<dim>1</dim>
				</port>
			</input>
			<output>
				<port id="2" precision="FP32">
					<dim>1</dim>
					<dim>192</dim>
					<dim>1</dim>
					<dim>1</dim>
				</port>
			</output>
		</layer>
		<layer id="216" name="Reshape_2035_compressed" type="Const" version="opset1">
			<data element_type="f16" shape="1, 192, 1, 1" offset="133228" size="384" />
			<output>
				<port id="0" precision="FP16">
					<dim>1</dim>
					<dim>192</dim>
					<dim>1</dim>
					<dim>1</dim>
				</port>
			</output>
		</layer>
		<layer id="217" name="Reshape_2035" type="Convert" version="opset1">
			<data destination_type="f32" />
			<rt_info>
				<attribute name="decompression" version="0" />
			</rt_info>
			<input>
				<port id="0" precision="FP16">
					<dim>1</dim>
					<dim>192</dim>
					<dim>1</dim>
					<dim>1</dim>
				</port>
			</input>
			<output>
				<port id="1" precision="FP32">
					<dim>1</dim>
					<dim>192</dim>
					<dim>1</dim>
					<dim>1</dim>
				</port>
			</output>
		</layer>
		<layer id="218" name="Conv_81" type="Add" version="opset1">
			<data auto_broadcast="numpy" />
			<input>
				<port id="0" precision="FP32">
					<dim>1</dim>
					<dim>192</dim>
					<dim>1</dim>
					<dim>1</dim>
				</port>
				<port id="1" precision="FP32">
					<dim>1</dim>
					<dim>192</dim>
					<dim>1</dim>
					<dim>1</dim>
				</port>
			</input>
			<output>
				<port id="2" precision="FP32" names="1330">
					<dim>1</dim>
					<dim>192</dim>
					<dim>1</dim>
					<dim>1</dim>
				</port>
			</output>
		</layer>
		<layer id="219" name="Sigmoid_82" type="Sigmoid" version="opset1">
			<input>
				<port id="0" precision="FP32">
					<dim>1</dim>
					<dim>192</dim>
					<dim>1</dim>
					<dim>1</dim>
				</port>
			</input>
			<output>
				<port id="1" precision="FP32" names="1331">
					<dim>1</dim>
					<dim>192</dim>
					<dim>1</dim>
					<dim>1</dim>
				</port>
			</output>
		</layer>
		<layer id="220" name="Mul_83" type="Multiply" version="opset1">
			<data auto_broadcast="numpy" />
			<input>
				<port id="0" precision="FP32">
					<dim>1</dim>
					<dim>192</dim>
					<dim>36</dim>
					<dim>36</dim>
				</port>
				<port id="1" precision="FP32">
					<dim>1</dim>
					<dim>192</dim>
					<dim>1</dim>
					<dim>1</dim>
				</port>
			</input>
			<output>
				<port id="2" precision="FP32" names="1332">
					<dim>1</dim>
					<dim>192</dim>
					<dim>36</dim>
					<dim>36</dim>
				</port>
			</output>
		</layer>
		<layer id="221" name="Multiply_69209_compressed" type="Const" version="opset1">
			<data element_type="f16" shape="32, 192, 1, 1" offset="133612" size="12288" />
			<output>
				<port id="0" precision="FP16">
					<dim>32</dim>
					<dim>192</dim>
					<dim>1</dim>
					<dim>1</dim>
				</port>
			</output>
		</layer>
		<layer id="222" name="Multiply_69209" type="Convert" version="opset1">
			<data destination_type="f32" />
			<rt_info>
				<attribute name="decompression" version="0" />
			</rt_info>
			<input>
				<port id="0" precision="FP16">
					<dim>32</dim>
					<dim>192</dim>
					<dim>1</dim>
					<dim>1</dim>
				</port>
			</input>
			<output>
				<port id="1" precision="FP32">
					<dim>32</dim>
					<dim>192</dim>
					<dim>1</dim>
					<dim>1</dim>
				</port>
			</output>
		</layer>
		<layer id="223" name="Multiply_67882" type="Convolution" version="opset1">
			<data strides="1, 1" dilations="1, 1" pads_begin="0, 0" pads_end="0, 0" auto_pad="explicit" />
			<input>
				<port id="0" precision="FP32">
					<dim>1</dim>
					<dim>192</dim>
					<dim>36</dim>
					<dim>36</dim>
				</port>
				<port id="1" precision="FP32">
					<dim>32</dim>
					<dim>192</dim>
					<dim>1</dim>
					<dim>1</dim>
				</port>
			</input>
			<output>
				<port id="2" precision="FP32">
					<dim>1</dim>
					<dim>32</dim>
					<dim>36</dim>
					<dim>36</dim>
				</port>
			</output>
		</layer>
		<layer id="224" name="Constant_67887_compressed" type="Const" version="opset1">
			<data element_type="f16" shape="1, 32, 1, 1" offset="145900" size="64" />
			<output>
				<port id="0" precision="FP16">
					<dim>1</dim>
					<dim>32</dim>
					<dim>1</dim>
					<dim>1</dim>
				</port>
			</output>
		</layer>
		<layer id="225" name="Constant_67887" type="Convert" version="opset1">
			<data destination_type="f32" />
			<rt_info>
				<attribute name="decompression" version="0" />
			</rt_info>
			<input>
				<port id="0" precision="FP16">
					<dim>1</dim>
					<dim>32</dim>
					<dim>1</dim>
					<dim>1</dim>
				</port>
			</input>
			<output>
				<port id="1" precision="FP32">
					<dim>1</dim>
					<dim>32</dim>
					<dim>1</dim>
					<dim>1</dim>
				</port>
			</output>
		</layer>
		<layer id="226" name="BatchNormalization_85" type="Add" version="opset1">
			<data auto_broadcast="numpy" />
			<input>
				<port id="0" precision="FP32">
					<dim>1</dim>
					<dim>32</dim>
					<dim>36</dim>
					<dim>36</dim>
				</port>
				<port id="1" precision="FP32">
					<dim>1</dim>
					<dim>32</dim>
					<dim>1</dim>
					<dim>1</dim>
				</port>
			</input>
			<output>
				<port id="2" precision="FP32" names="1334">
					<dim>1</dim>
					<dim>32</dim>
					<dim>36</dim>
					<dim>36</dim>
				</port>
			</output>
		</layer>
		<layer id="227" name="Add_86" type="Add" version="opset1">
			<data auto_broadcast="numpy" />
			<input>
				<port id="0" precision="FP32">
					<dim>1</dim>
					<dim>32</dim>
					<dim>36</dim>
					<dim>36</dim>
				</port>
				<port id="1" precision="FP32">
					<dim>1</dim>
					<dim>32</dim>
					<dim>36</dim>
					<dim>36</dim>
				</port>
			</input>
			<output>
				<port id="2" precision="FP32" names="1335">
					<dim>1</dim>
					<dim>32</dim>
					<dim>36</dim>
					<dim>36</dim>
				</port>
			</output>
		</layer>
		<layer id="228" name="Multiply_69218_compressed" type="Const" version="opset1">
			<data element_type="f16" shape="42, 32, 3, 3" offset="145964" size="24192" />
			<output>
				<port id="0" precision="FP16">
					<dim>42</dim>
					<dim>32</dim>
					<dim>3</dim>
					<dim>3</dim>
				</port>
			</output>
		</layer>
		<layer id="229" name="Multiply_69218" type="Convert" version="opset1">
			<data destination_type="f32" />
			<rt_info>
				<attribute name="decompression" version="0" />
			</rt_info>
			<input>
				<port id="0" precision="FP16">
					<dim>42</dim>
					<dim>32</dim>
					<dim>3</dim>
					<dim>3</dim>
				</port>
			</input>
			<output>
				<port id="1" precision="FP32">
					<dim>42</dim>
					<dim>32</dim>
					<dim>3</dim>
					<dim>3</dim>
				</port>
			</output>
		</layer>
		<layer id="230" name="Multiply_67889" type="Convolution" version="opset1">
			<data strides="1, 1" dilations="1, 1" pads_begin="1, 1" pads_end="1, 1" auto_pad="explicit" />
			<input>
				<port id="0" precision="FP32">
					<dim>1</dim>
					<dim>32</dim>
					<dim>36</dim>
					<dim>36</dim>
				</port>
				<port id="1" precision="FP32">
					<dim>42</dim>
					<dim>32</dim>
					<dim>3</dim>
					<dim>3</dim>
				</port>
			</input>
			<output>
				<port id="2" precision="FP32">
					<dim>1</dim>
					<dim>42</dim>
					<dim>36</dim>
					<dim>36</dim>
				</port>
			</output>
		</layer>
		<layer id="231" name="Constant_67894_compressed" type="Const" version="opset1">
			<data element_type="f16" shape="1, 42, 1, 1" offset="170156" size="84" />
			<output>
				<port id="0" precision="FP16">
					<dim>1</dim>
					<dim>42</dim>
					<dim>1</dim>
					<dim>1</dim>
				</port>
			</output>
		</layer>
		<layer id="232" name="Constant_67894" type="Convert" version="opset1">
			<data destination_type="f32" />
			<rt_info>
				<attribute name="decompression" version="0" />
			</rt_info>
			<input>
				<port id="0" precision="FP16">
					<dim>1</dim>
					<dim>42</dim>
					<dim>1</dim>
					<dim>1</dim>
				</port>
			</input>
			<output>
				<port id="1" precision="FP32">
					<dim>1</dim>
					<dim>42</dim>
					<dim>1</dim>
					<dim>1</dim>
				</port>
			</output>
		</layer>
		<layer id="233" name="BatchNormalization_267" type="Add" version="opset1">
			<data auto_broadcast="numpy" />
			<input>
				<port id="0" precision="FP32">
					<dim>1</dim>
					<dim>42</dim>
					<dim>36</dim>
					<dim>36</dim>
				</port>
				<port id="1" precision="FP32">
					<dim>1</dim>
					<dim>42</dim>
					<dim>1</dim>
					<dim>1</dim>
				</port>
			</input>
			<output>
				<port id="2" precision="FP32" names="1516">
					<dim>1</dim>
					<dim>42</dim>
					<dim>36</dim>
					<dim>36</dim>
				</port>
			</output>
		</layer>
		<layer id="234" name="Relu_268" type="ReLU" version="opset1">
			<input>
				<port id="0" precision="FP32">
					<dim>1</dim>
					<dim>42</dim>
					<dim>36</dim>
					<dim>36</dim>
				</port>
			</input>
			<output>
				<port id="1" precision="FP32" names="1517">
					<dim>1</dim>
					<dim>42</dim>
					<dim>36</dim>
					<dim>36</dim>
				</port>
			</output>
		</layer>
		<layer id="235" name="Multiply_69227_compressed" type="Const" version="opset1">
			<data element_type="f16" shape="42, 42, 3, 3" offset="170240" size="31752" />
			<output>
				<port id="0" precision="FP16">
					<dim>42</dim>
					<dim>42</dim>
					<dim>3</dim>
					<dim>3</dim>
				</port>
			</output>
		</layer>
		<layer id="236" name="Multiply_69227" type="Convert" version="opset1">
			<data destination_type="f32" />
			<rt_info>
				<attribute name="decompression" version="0" />
			</rt_info>
			<input>
				<port id="0" precision="FP16">
					<dim>42</dim>
					<dim>42</dim>
					<dim>3</dim>
					<dim>3</dim>
				</port>
			</input>
			<output>
				<port id="1" precision="FP32">
					<dim>42</dim>
					<dim>42</dim>
					<dim>3</dim>
					<dim>3</dim>
				</port>
			</output>
		</layer>
		<layer id="237" name="Multiply_67896" type="Convolution" version="opset1">
			<data strides="1, 1" dilations="1, 1" pads_begin="1, 1" pads_end="1, 1" auto_pad="explicit" />
			<input>
				<port id="0" precision="FP32">
					<dim>1</dim>
					<dim>42</dim>
					<dim>36</dim>
					<dim>36</dim>
				</port>
				<port id="1" precision="FP32">
					<dim>42</dim>
					<dim>42</dim>
					<dim>3</dim>
					<dim>3</dim>
				</port>
			</input>
			<output>
				<port id="2" precision="FP32">
					<dim>1</dim>
					<dim>42</dim>
					<dim>36</dim>
					<dim>36</dim>
				</port>
			</output>
		</layer>
		<layer id="238" name="Constant_67901_compressed" type="Const" version="opset1">
			<data element_type="f16" shape="1, 42, 1, 1" offset="201992" size="84" />
			<output>
				<port id="0" precision="FP16">
					<dim>1</dim>
					<dim>42</dim>
					<dim>1</dim>
					<dim>1</dim>
				</port>
			</output>
		</layer>
		<layer id="239" name="Constant_67901" type="Convert" version="opset1">
			<data destination_type="f32" />
			<rt_info>
				<attribute name="decompression" version="0" />
			</rt_info>
			<input>
				<port id="0" precision="FP16">
					<dim>1</dim>
					<dim>42</dim>
					<dim>1</dim>
					<dim>1</dim>
				</port>
			</input>
			<output>
				<port id="1" precision="FP32">
					<dim>1</dim>
					<dim>42</dim>
					<dim>1</dim>
					<dim>1</dim>
				</port>
			</output>
		</layer>
		<layer id="240" name="BatchNormalization_290" type="Add" version="opset1">
			<data auto_broadcast="numpy" />
			<input>
				<port id="0" precision="FP32">
					<dim>1</dim>
					<dim>42</dim>
					<dim>36</dim>
					<dim>36</dim>
				</port>
				<port id="1" precision="FP32">
					<dim>1</dim>
					<dim>42</dim>
					<dim>1</dim>
					<dim>1</dim>
				</port>
			</input>
			<output>
				<port id="2" precision="FP32" names="1539">
					<dim>1</dim>
					<dim>42</dim>
					<dim>36</dim>
					<dim>36</dim>
				</port>
			</output>
		</layer>
		<layer id="241" name="Relu_291" type="ReLU" version="opset1">
			<input>
				<port id="0" precision="FP32">
					<dim>1</dim>
					<dim>42</dim>
					<dim>36</dim>
					<dim>36</dim>
				</port>
			</input>
			<output>
				<port id="1" precision="FP32" names="1540">
					<dim>1</dim>
					<dim>42</dim>
					<dim>36</dim>
					<dim>36</dim>
				</port>
			</output>
		</layer>
		<layer id="242" name="Multiply_69236_compressed" type="Const" version="opset1">
			<data element_type="f16" shape="42, 42, 3, 3" offset="202076" size="31752" />
			<output>
				<port id="0" precision="FP16">
					<dim>42</dim>
					<dim>42</dim>
					<dim>3</dim>
					<dim>3</dim>
				</port>
			</output>
		</layer>
		<layer id="243" name="Multiply_69236" type="Convert" version="opset1">
			<data destination_type="f32" />
			<rt_info>
				<attribute name="decompression" version="0" />
			</rt_info>
			<input>
				<port id="0" precision="FP16">
					<dim>42</dim>
					<dim>42</dim>
					<dim>3</dim>
					<dim>3</dim>
				</port>
			</input>
			<output>
				<port id="1" precision="FP32">
					<dim>42</dim>
					<dim>42</dim>
					<dim>3</dim>
					<dim>3</dim>
				</port>
			</output>
		</layer>
		<layer id="244" name="Multiply_67903" type="Convolution" version="opset1">
			<data strides="1, 1" dilations="1, 1" pads_begin="1, 1" pads_end="1, 1" auto_pad="explicit" />
			<input>
				<port id="0" precision="FP32">
					<dim>1</dim>
					<dim>42</dim>
					<dim>36</dim>
					<dim>36</dim>
				</port>
				<port id="1" precision="FP32">
					<dim>42</dim>
					<dim>42</dim>
					<dim>3</dim>
					<dim>3</dim>
				</port>
			</input>
			<output>
				<port id="2" precision="FP32">
					<dim>1</dim>
					<dim>42</dim>
					<dim>36</dim>
					<dim>36</dim>
				</port>
			</output>
		</layer>
		<layer id="245" name="Constant_67908_compressed" type="Const" version="opset1">
			<data element_type="f16" shape="1, 42, 1, 1" offset="233828" size="84" />
			<output>
				<port id="0" precision="FP16">
					<dim>1</dim>
					<dim>42</dim>
					<dim>1</dim>
					<dim>1</dim>
				</port>
			</output>
		</layer>
		<layer id="246" name="Constant_67908" type="Convert" version="opset1">
			<data destination_type="f32" />
			<rt_info>
				<attribute name="decompression" version="0" />
			</rt_info>
			<input>
				<port id="0" precision="FP16">
					<dim>1</dim>
					<dim>42</dim>
					<dim>1</dim>
					<dim>1</dim>
				</port>
			</input>
			<output>
				<port id="1" precision="FP32">
					<dim>1</dim>
					<dim>42</dim>
					<dim>1</dim>
					<dim>1</dim>
				</port>
			</output>
		</layer>
		<layer id="247" name="BatchNormalization_293" type="Add" version="opset1">
			<data auto_broadcast="numpy" />
			<input>
				<port id="0" precision="FP32">
					<dim>1</dim>
					<dim>42</dim>
					<dim>36</dim>
					<dim>36</dim>
				</port>
				<port id="1" precision="FP32">
					<dim>1</dim>
					<dim>42</dim>
					<dim>1</dim>
					<dim>1</dim>
				</port>
			</input>
			<output>
				<port id="2" precision="FP32" names="1542">
					<dim>1</dim>
					<dim>42</dim>
					<dim>36</dim>
					<dim>36</dim>
				</port>
			</output>
		</layer>
		<layer id="248" name="Add_294" type="Add" version="opset1">
			<data auto_broadcast="numpy" />
			<input>
				<port id="0" precision="FP32">
					<dim>1</dim>
					<dim>42</dim>
					<dim>36</dim>
					<dim>36</dim>
				</port>
				<port id="1" precision="FP32">
					<dim>1</dim>
					<dim>42</dim>
					<dim>36</dim>
					<dim>36</dim>
				</port>
			</input>
			<output>
				<port id="2" precision="FP32" names="1543">
					<dim>1</dim>
					<dim>42</dim>
					<dim>36</dim>
					<dim>36</dim>
				</port>
			</output>
		</layer>
		<layer id="249" name="Relu_295" type="ReLU" version="opset1">
			<input>
				<port id="0" precision="FP32">
					<dim>1</dim>
					<dim>42</dim>
					<dim>36</dim>
					<dim>36</dim>
				</port>
			</input>
			<output>
				<port id="1" precision="FP32" names="1544">
					<dim>1</dim>
					<dim>42</dim>
					<dim>36</dim>
					<dim>36</dim>
				</port>
			</output>
		</layer>
		<layer id="250" name="Multiply_69245_compressed" type="Const" version="opset1">
			<data element_type="f16" shape="42, 42, 3, 3" offset="233912" size="31752" />
			<output>
				<port id="0" precision="FP16">
					<dim>42</dim>
					<dim>42</dim>
					<dim>3</dim>
					<dim>3</dim>
				</port>
			</output>
		</layer>
		<layer id="251" name="Multiply_69245" type="Convert" version="opset1">
			<data destination_type="f32" />
			<rt_info>
				<attribute name="decompression" version="0" />
			</rt_info>
			<input>
				<port id="0" precision="FP16">
					<dim>42</dim>
					<dim>42</dim>
					<dim>3</dim>
					<dim>3</dim>
				</port>
			</input>
			<output>
				<port id="1" precision="FP32">
					<dim>42</dim>
					<dim>42</dim>
					<dim>3</dim>
					<dim>3</dim>
				</port>
			</output>
		</layer>
		<layer id="252" name="Multiply_67910" type="Convolution" version="opset1">
			<data strides="1, 1" dilations="1, 1" pads_begin="1, 1" pads_end="1, 1" auto_pad="explicit" />
			<input>
				<port id="0" precision="FP32">
					<dim>1</dim>
					<dim>42</dim>
					<dim>36</dim>
					<dim>36</dim>
				</port>
				<port id="1" precision="FP32">
					<dim>42</dim>
					<dim>42</dim>
					<dim>3</dim>
					<dim>3</dim>
				</port>
			</input>
			<output>
				<port id="2" precision="FP32">
					<dim>1</dim>
					<dim>42</dim>
					<dim>36</dim>
					<dim>36</dim>
				</port>
			</output>
		</layer>
		<layer id="253" name="Constant_67915_compressed" type="Const" version="opset1">
			<data element_type="f16" shape="1, 42, 1, 1" offset="265664" size="84" />
			<output>
				<port id="0" precision="FP16">
					<dim>1</dim>
					<dim>42</dim>
					<dim>1</dim>
					<dim>1</dim>
				</port>
			</output>
		</layer>
		<layer id="254" name="Constant_67915" type="Convert" version="opset1">
			<data destination_type="f32" />
			<rt_info>
				<attribute name="decompression" version="0" />
			</rt_info>
			<input>
				<port id="0" precision="FP16">
					<dim>1</dim>
					<dim>42</dim>
					<dim>1</dim>
					<dim>1</dim>
				</port>
			</input>
			<output>
				<port id="1" precision="FP32">
					<dim>1</dim>
					<dim>42</dim>
					<dim>1</dim>
					<dim>1</dim>
				</port>
			</output>
		</layer>
		<layer id="255" name="BatchNormalization_297" type="Add" version="opset1">
			<data auto_broadcast="numpy" />
			<input>
				<port id="0" precision="FP32">
					<dim>1</dim>
					<dim>42</dim>
					<dim>36</dim>
					<dim>36</dim>
				</port>
				<port id="1" precision="FP32">
					<dim>1</dim>
					<dim>42</dim>
					<dim>1</dim>
					<dim>1</dim>
				</port>
			</input>
			<output>
				<port id="2" precision="FP32" names="1546">
					<dim>1</dim>
					<dim>42</dim>
					<dim>36</dim>
					<dim>36</dim>
				</port>
			</output>
		</layer>
		<layer id="256" name="Relu_298" type="ReLU" version="opset1">
			<input>
				<port id="0" precision="FP32">
					<dim>1</dim>
					<dim>42</dim>
					<dim>36</dim>
					<dim>36</dim>
				</port>
			</input>
			<output>
				<port id="1" precision="FP32" names="1547">
					<dim>1</dim>
					<dim>42</dim>
					<dim>36</dim>
					<dim>36</dim>
				</port>
			</output>
		</layer>
		<layer id="257" name="Multiply_69254_compressed" type="Const" version="opset1">
			<data element_type="f16" shape="42, 42, 3, 3" offset="265748" size="31752" />
			<output>
				<port id="0" precision="FP16">
					<dim>42</dim>
					<dim>42</dim>
					<dim>3</dim>
					<dim>3</dim>
				</port>
			</output>
		</layer>
		<layer id="258" name="Multiply_69254" type="Convert" version="opset1">
			<data destination_type="f32" />
			<rt_info>
				<attribute name="decompression" version="0" />
			</rt_info>
			<input>
				<port id="0" precision="FP16">
					<dim>42</dim>
					<dim>42</dim>
					<dim>3</dim>
					<dim>3</dim>
				</port>
			</input>
			<output>
				<port id="1" precision="FP32">
					<dim>42</dim>
					<dim>42</dim>
					<dim>3</dim>
					<dim>3</dim>
				</port>
			</output>
		</layer>
		<layer id="259" name="Multiply_67917" type="Convolution" version="opset1">
			<data strides="1, 1" dilations="1, 1" pads_begin="1, 1" pads_end="1, 1" auto_pad="explicit" />
			<input>
				<port id="0" precision="FP32">
					<dim>1</dim>
					<dim>42</dim>
					<dim>36</dim>
					<dim>36</dim>
				</port>
				<port id="1" precision="FP32">
					<dim>42</dim>
					<dim>42</dim>
					<dim>3</dim>
					<dim>3</dim>
				</port>
			</input>
			<output>
				<port id="2" precision="FP32">
					<dim>1</dim>
					<dim>42</dim>
					<dim>36</dim>
					<dim>36</dim>
				</port>
			</output>
		</layer>
		<layer id="260" name="Constant_67922_compressed" type="Const" version="opset1">
			<data element_type="f16" shape="1, 42, 1, 1" offset="297500" size="84" />
			<output>
				<port id="0" precision="FP16">
					<dim>1</dim>
					<dim>42</dim>
					<dim>1</dim>
					<dim>1</dim>
				</port>
			</output>
		</layer>
		<layer id="261" name="Constant_67922" type="Convert" version="opset1">
			<data destination_type="f32" />
			<rt_info>
				<attribute name="decompression" version="0" />
			</rt_info>
			<input>
				<port id="0" precision="FP16">
					<dim>1</dim>
					<dim>42</dim>
					<dim>1</dim>
					<dim>1</dim>
				</port>
			</input>
			<output>
				<port id="1" precision="FP32">
					<dim>1</dim>
					<dim>42</dim>
					<dim>1</dim>
					<dim>1</dim>
				</port>
			</output>
		</layer>
		<layer id="262" name="BatchNormalization_300" type="Add" version="opset1">
			<data auto_broadcast="numpy" />
			<input>
				<port id="0" precision="FP32">
					<dim>1</dim>
					<dim>42</dim>
					<dim>36</dim>
					<dim>36</dim>
				</port>
				<port id="1" precision="FP32">
					<dim>1</dim>
					<dim>42</dim>
					<dim>1</dim>
					<dim>1</dim>
				</port>
			</input>
			<output>
				<port id="2" precision="FP32" names="1549">
					<dim>1</dim>
					<dim>42</dim>
					<dim>36</dim>
					<dim>36</dim>
				</port>
			</output>
		</layer>
		<layer id="263" name="Add_301" type="Add" version="opset1">
			<data auto_broadcast="numpy" />
			<input>
				<port id="0" precision="FP32">
					<dim>1</dim>
					<dim>42</dim>
					<dim>36</dim>
					<dim>36</dim>
				</port>
				<port id="1" precision="FP32">
					<dim>1</dim>
					<dim>42</dim>
					<dim>36</dim>
					<dim>36</dim>
				</port>
			</input>
			<output>
				<port id="2" precision="FP32" names="1550">
					<dim>1</dim>
					<dim>42</dim>
					<dim>36</dim>
					<dim>36</dim>
				</port>
			</output>
		</layer>
		<layer id="264" name="Relu_302" type="ReLU" version="opset1">
			<input>
				<port id="0" precision="FP32">
					<dim>1</dim>
					<dim>42</dim>
					<dim>36</dim>
					<dim>36</dim>
				</port>
			</input>
			<output>
				<port id="1" precision="FP32" names="1551">
					<dim>1</dim>
					<dim>42</dim>
					<dim>36</dim>
					<dim>36</dim>
				</port>
			</output>
		</layer>
		<layer id="265" name="Multiply_69263_compressed" type="Const" version="opset1">
			<data element_type="f16" shape="21, 42, 1, 1" offset="297584" size="1764" />
			<output>
				<port id="0" precision="FP16">
					<dim>21</dim>
					<dim>42</dim>
					<dim>1</dim>
					<dim>1</dim>
				</port>
			</output>
		</layer>
		<layer id="266" name="Multiply_69263" type="Convert" version="opset1">
			<data destination_type="f32" />
			<rt_info>
				<attribute name="decompression" version="0" />
			</rt_info>
			<input>
				<port id="0" precision="FP16">
					<dim>21</dim>
					<dim>42</dim>
					<dim>1</dim>
					<dim>1</dim>
				</port>
			</input>
			<output>
				<port id="1" precision="FP32">
					<dim>21</dim>
					<dim>42</dim>
					<dim>1</dim>
					<dim>1</dim>
				</port>
			</output>
		</layer>
		<layer id="267" name="Multiply_67924" type="Convolution" version="opset1">
			<data strides="1, 1" dilations="1, 1" pads_begin="0, 0" pads_end="0, 0" auto_pad="explicit" />
			<input>
				<port id="0" precision="FP32">
					<dim>1</dim>
					<dim>42</dim>
					<dim>36</dim>
					<dim>36</dim>
				</port>
				<port id="1" precision="FP32">
					<dim>21</dim>
					<dim>42</dim>
					<dim>1</dim>
					<dim>1</dim>
				</port>
			</input>
			<output>
				<port id="2" precision="FP32">
					<dim>1</dim>
					<dim>21</dim>
					<dim>36</dim>
					<dim>36</dim>
				</port>
			</output>
		</layer>
		<layer id="268" name="Constant_67929_compressed" type="Const" version="opset1">
			<data element_type="f16" shape="1, 21, 1, 1" offset="299348" size="42" />
			<output>
				<port id="0" precision="FP16">
					<dim>1</dim>
					<dim>21</dim>
					<dim>1</dim>
					<dim>1</dim>
				</port>
			</output>
		</layer>
		<layer id="269" name="Constant_67929" type="Convert" version="opset1">
			<data destination_type="f32" />
			<rt_info>
				<attribute name="decompression" version="0" />
			</rt_info>
			<input>
				<port id="0" precision="FP16">
					<dim>1</dim>
					<dim>21</dim>
					<dim>1</dim>
					<dim>1</dim>
				</port>
			</input>
			<output>
				<port id="1" precision="FP32">
					<dim>1</dim>
					<dim>21</dim>
					<dim>1</dim>
					<dim>1</dim>
				</port>
			</output>
		</layer>
		<layer id="270" name="BatchNormalization_306" type="Add" version="opset1">
			<data auto_broadcast="numpy" />
			<input>
				<port id="0" precision="FP32">
					<dim>1</dim>
					<dim>21</dim>
					<dim>36</dim>
					<dim>36</dim>
				</port>
				<port id="1" precision="FP32">
					<dim>1</dim>
					<dim>21</dim>
					<dim>1</dim>
					<dim>1</dim>
				</port>
			</input>
			<output>
				<port id="2" precision="FP32" names="1555">
					<dim>1</dim>
					<dim>21</dim>
					<dim>36</dim>
					<dim>36</dim>
				</port>
			</output>
		</layer>
		<layer id="271" name="Shape_327" type="ShapeOf" version="opset3">
			<data output_type="i64" />
			<input>
				<port id="0" precision="FP32">
					<dim>1</dim>
					<dim>21</dim>
					<dim>36</dim>
					<dim>36</dim>
				</port>
			</input>
			<output>
				<port id="1" precision="I64" names="1556,1564,1576">
					<dim>4</dim>
				</port>
			</output>
		</layer>
		<layer id="272" name="Constant_329" type="Const" version="opset1">
			<data element_type="i64" shape="1" offset="299390" size="8" />
			<output>
				<port id="0" precision="I64" names="1578">
					<dim>1</dim>
				</port>
			</output>
		</layer>
		<layer id="273" name="Constant_330" type="Const" version="opset1">
			<data element_type="i64" shape="1" offset="299398" size="8" />
			<output>
				<port id="0" precision="I64" names="1579">
					<dim>1</dim>
				</port>
			</output>
		</layer>
		<layer id="274" name="Broadcast_4332" type="Const" version="opset1">
			<data element_type="i64" shape="1" offset="299406" size="8" />
			<output>
				<port id="0" precision="I64">
					<dim>1</dim>
				</port>
			</output>
		</layer>
		<layer id="275" name="Slice_331" type="StridedSlice" version="opset1">
			<data begin_mask="0" end_mask="0" new_axis_mask="" shrink_axis_mask="" ellipsis_mask="" />
			<input>
				<port id="0" precision="I64">
					<dim>4</dim>
				</port>
				<port id="1" precision="I64">
					<dim>1</dim>
				</port>
				<port id="2" precision="I64">
					<dim>1</dim>
				</port>
				<port id="3" precision="I64">
					<dim>1</dim>
				</port>
			</input>
			<output>
				<port id="4" precision="I64" names="1580">
					<dim>2</dim>
				</port>
			</output>
		</layer>
		<layer id="276" name="Constant_308" type="Const" version="opset1">
			<data element_type="i64" shape="" offset="299398" size="8" />
			<output>
				<port id="0" precision="I64" names="1557" />
			</output>
		</layer>
		<layer id="277" name="Constant_4304" type="Const" version="opset1">
			<data element_type="i64" shape="" offset="299390" size="8" />
			<output>
				<port id="0" precision="I64" />
			</output>
		</layer>
		<layer id="278" name="Gather_309" type="Gather" version="opset8">
			<data batch_dims="0" />
			<input>
				<port id="0" precision="I64">
					<dim>4</dim>
				</port>
				<port id="1" precision="I64" />
				<port id="2" precision="I64" />
			</input>
			<output>
				<port id="3" precision="I64" names="1558" />
			</output>
		</layer>
		<layer id="279" name="Cast_310" type="Convert" version="opset1">
			<data destination_type="f32" />
			<input>
				<port id="0" precision="I64" />
			</input>
			<output>
				<port id="1" precision="FP32" names="1559" />
			</output>
		</layer>
		<layer id="280" name="Constant_311" type="Const" version="opset1">
			<data element_type="f32" shape="" offset="299414" size="4" />
			<output>
				<port id="0" precision="FP32" names="1560" />
			</output>
		</layer>
		<layer id="281" name="Mul_312" type="Multiply" version="opset1">
			<data auto_broadcast="numpy" />
			<input>
				<port id="0" precision="FP32" />
				<port id="1" precision="FP32" />
			</input>
			<output>
				<port id="2" precision="FP32" names="1561,1562" />
			</output>
		</layer>
		<layer id="282" name="Floor_314" type="Floor" version="opset1">
			<input>
				<port id="0" precision="FP32" />
			</input>
			<output>
				<port id="1" precision="FP32" names="1563" />
			</output>
		</layer>
		<layer id="283" name="Constant_4320" type="Const" version="opset1">
			<data element_type="i64" shape="1" offset="299390" size="8" />
			<output>
				<port id="0" precision="I64">
					<dim>1</dim>
				</port>
			</output>
		</layer>
		<layer id="284" name="Unsqueeze_323" type="Unsqueeze" version="opset1">
			<input>
				<port id="0" precision="FP32" />
				<port id="1" precision="I64">
					<dim>1</dim>
				</port>
			</input>
			<output>
				<port id="2" precision="FP32" names="1572">
					<dim>1</dim>
				</port>
			</output>
		</layer>
		<layer id="285" name="Constant_316" type="Const" version="opset1">
			<data element_type="i64" shape="" offset="299418" size="8" />
			<output>
				<port id="0" precision="I64" names="1565" />
			</output>
		</layer>
		<layer id="286" name="Constant_4313" type="Const" version="opset1">
			<data element_type="i64" shape="" offset="299390" size="8" />
			<output>
				<port id="0" precision="I64" />
			</output>
		</layer>
		<layer id="287" name="Gather_317" type="Gather" version="opset8">
			<data batch_dims="0" />
			<input>
				<port id="0" precision="I64">
					<dim>4</dim>
				</port>
				<port id="1" precision="I64" />
				<port id="2" precision="I64" />
			</input>
			<output>
				<port id="3" precision="I64" names="1566" />
			</output>
		</layer>
		<layer id="288" name="Cast_318" type="Convert" version="opset1">
			<data destination_type="f32" />
			<input>
				<port id="0" precision="I64" />
			</input>
			<output>
				<port id="1" precision="FP32" names="1567" />
			</output>
		</layer>
		<layer id="289" name="Constant_319" type="Const" version="opset1">
			<data element_type="f32" shape="" offset="299414" size="4" />
			<output>
				<port id="0" precision="FP32" names="1568" />
			</output>
		</layer>
		<layer id="290" name="Mul_320" type="Multiply" version="opset1">
			<data auto_broadcast="numpy" />
			<input>
				<port id="0" precision="FP32" />
				<port id="1" precision="FP32" />
			</input>
			<output>
				<port id="2" precision="FP32" names="1569,1570" />
			</output>
		</layer>
		<layer id="291" name="Floor_322" type="Floor" version="opset1">
			<input>
				<port id="0" precision="FP32" />
			</input>
			<output>
				<port id="1" precision="FP32" names="1571" />
			</output>
		</layer>
		<layer id="292" name="Constant_4322" type="Const" version="opset1">
			<data element_type="i64" shape="1" offset="299390" size="8" />
			<output>
				<port id="0" precision="I64">
					<dim>1</dim>
				</port>
			</output>
		</layer>
		<layer id="293" name="Unsqueeze_324" type="Unsqueeze" version="opset1">
			<input>
				<port id="0" precision="FP32" />
				<port id="1" precision="I64">
					<dim>1</dim>
				</port>
			</input>
			<output>
				<port id="2" precision="FP32" names="1573">
					<dim>1</dim>
				</port>
			</output>
		</layer>
		<layer id="294" name="Concat_325" type="Concat" version="opset1">
			<data axis="0" />
			<input>
				<port id="0" precision="FP32">
					<dim>1</dim>
				</port>
				<port id="1" precision="FP32">
					<dim>1</dim>
				</port>
			</input>
			<output>
				<port id="2" precision="FP32" names="1574">
					<dim>2</dim>
				</port>
			</output>
		</layer>
		<layer id="295" name="Cast_332" type="Convert" version="opset1">
			<data destination_type="i64" />
			<input>
				<port id="0" precision="FP32">
					<dim>2</dim>
				</port>
			</input>
			<output>
				<port id="1" precision="I64" names="1581">
					<dim>2</dim>
				</port>
			</output>
		</layer>
		<layer id="296" name="Concat_333" type="Concat" version="opset1">
			<data axis="0" />
			<input>
				<port id="0" precision="I64">
					<dim>2</dim>
				</port>
				<port id="1" precision="I64">
					<dim>2</dim>
				</port>
			</input>
			<output>
				<port id="2" precision="I64" names="1582">
					<dim>4</dim>
				</port>
			</output>
		</layer>
		<layer id="297" name="Convert_4354" type="Convert" version="opset1">
			<data destination_type="f32" />
			<input>
				<port id="0" precision="I64">
					<dim>4</dim>
				</port>
			</input>
			<output>
				<port id="1" precision="FP32">
					<dim>4</dim>
				</port>
			</output>
		</layer>
		<layer id="298" name="Convert_4353" type="Convert" version="opset1">
			<data destination_type="f32" />
			<input>
				<port id="0" precision="I64">
					<dim>4</dim>
				</port>
			</input>
			<output>
				<port id="1" precision="FP32">
					<dim>4</dim>
				</port>
			</output>
		</layer>
		<layer id="299" name="Divide_4355" type="Divide" version="opset1">
			<data auto_broadcast="numpy" m_pythondiv="true" />
			<input>
				<port id="0" precision="FP32">
					<dim>4</dim>
				</port>
				<port id="1" precision="FP32">
					<dim>4</dim>
				</port>
			</input>
			<output>
				<port id="2" precision="FP32">
					<dim>4</dim>
				</port>
			</output>
		</layer>
		<layer id="300" name="Constant_75985" type="Const" version="opset1">
			<data element_type="f32" shape="1" offset="299426" size="4" />
			<output>
				<port id="0" precision="FP32">
					<dim>1</dim>
				</port>
			</output>
		</layer>
		<layer id="301" name="Add_4357" type="Add" version="opset1">
			<data auto_broadcast="numpy" />
			<input>
				<port id="0" precision="FP32">
					<dim>4</dim>
				</port>
				<port id="1" precision="FP32">
					<dim>1</dim>
				</port>
			</input>
			<output>
				<port id="2" precision="FP32">
					<dim>4</dim>
				</port>
			</output>
		</layer>
		<layer id="302" name="Resize_335" type="Interpolate" version="opset4">
			<data mode="nearest" shape_calculation_mode="sizes" coordinate_transformation_mode="asymmetric" nearest_mode="floor" antialias="false" pads_begin="0, 0, 0, 0" pads_end="0, 0, 0, 0" cube_coeff="-0.75" />
			<input>
				<port id="0" precision="FP32">
					<dim>1</dim>
					<dim>21</dim>
					<dim>36</dim>
					<dim>36</dim>
				</port>
				<port id="1" precision="I64">
					<dim>4</dim>
				</port>
				<port id="2" precision="FP32">
					<dim>4</dim>
				</port>
			</input>
			<output>
				<port id="3" precision="FP32" names="1584">
					<dim>1</dim>
					<dim>21</dim>
					<dim>72</dim>
					<dim>72</dim>
				</port>
			</output>
		</layer>
		<layer id="303" name="Add_336" type="Add" version="opset1">
			<data auto_broadcast="numpy" />
			<input>
				<port id="0" precision="FP32">
					<dim>1</dim>
					<dim>21</dim>
					<dim>72</dim>
					<dim>72</dim>
				</port>
				<port id="1" precision="FP32">
					<dim>1</dim>
					<dim>21</dim>
					<dim>72</dim>
					<dim>72</dim>
				</port>
			</input>
			<output>
				<port id="2" precision="FP32" names="1585">
					<dim>1</dim>
					<dim>21</dim>
					<dim>72</dim>
					<dim>72</dim>
				</port>
			</output>
		</layer>
		<layer id="304" name="Relu_337" type="ReLU" version="opset1">
			<input>
				<port id="0" precision="FP32">
					<dim>1</dim>
					<dim>21</dim>
					<dim>72</dim>
					<dim>72</dim>
				</port>
			</input>
			<output>
				<port id="1" precision="FP32" names="1586">
					<dim>1</dim>
					<dim>21</dim>
					<dim>72</dim>
					<dim>72</dim>
				</port>
			</output>
		</layer>
		<layer id="305" name="Multiply_69272_compressed" type="Const" version="opset1">
			<data element_type="f16" shape="21, 21, 3, 3" offset="299430" size="7938" />
			<output>
				<port id="0" precision="FP16">
					<dim>21</dim>
					<dim>21</dim>
					<dim>3</dim>
					<dim>3</dim>
				</port>
			</output>
		</layer>
		<layer id="306" name="Multiply_69272" type="Convert" version="opset1">
			<data destination_type="f32" />
			<rt_info>
				<attribute name="decompression" version="0" />
			</rt_info>
			<input>
				<port id="0" precision="FP16">
					<dim>21</dim>
					<dim>21</dim>
					<dim>3</dim>
					<dim>3</dim>
				</port>
			</input>
			<output>
				<port id="1" precision="FP32">
					<dim>21</dim>
					<dim>21</dim>
					<dim>3</dim>
					<dim>3</dim>
				</port>
			</output>
		</layer>
		<layer id="307" name="Multiply_67931" type="Convolution" version="opset1">
			<data strides="1, 1" dilations="1, 1" pads_begin="1, 1" pads_end="1, 1" auto_pad="explicit" />
			<input>
				<port id="0" precision="FP32">
					<dim>1</dim>
					<dim>21</dim>
					<dim>72</dim>
					<dim>72</dim>
				</port>
				<port id="1" precision="FP32">
					<dim>21</dim>
					<dim>21</dim>
					<dim>3</dim>
					<dim>3</dim>
				</port>
			</input>
			<output>
				<port id="2" precision="FP32">
					<dim>1</dim>
					<dim>21</dim>
					<dim>72</dim>
					<dim>72</dim>
				</port>
			</output>
		</layer>
		<layer id="308" name="Constant_67936_compressed" type="Const" version="opset1">
			<data element_type="f16" shape="1, 21, 1, 1" offset="307368" size="42" />
			<output>
				<port id="0" precision="FP16">
					<dim>1</dim>
					<dim>21</dim>
					<dim>1</dim>
					<dim>1</dim>
				</port>
			</output>
		</layer>
		<layer id="309" name="Constant_67936" type="Convert" version="opset1">
			<data destination_type="f32" />
			<rt_info>
				<attribute name="decompression" version="0" />
			</rt_info>
			<input>
				<port id="0" precision="FP16">
					<dim>1</dim>
					<dim>21</dim>
					<dim>1</dim>
					<dim>1</dim>
				</port>
			</input>
			<output>
				<port id="1" precision="FP32">
					<dim>1</dim>
					<dim>21</dim>
					<dim>1</dim>
					<dim>1</dim>
				</port>
			</output>
		</layer>
		<layer id="310" name="BatchNormalization_343" type="Add" version="opset1">
			<data auto_broadcast="numpy" />
			<input>
				<port id="0" precision="FP32">
					<dim>1</dim>
					<dim>21</dim>
					<dim>72</dim>
					<dim>72</dim>
				</port>
				<port id="1" precision="FP32">
					<dim>1</dim>
					<dim>21</dim>
					<dim>1</dim>
					<dim>1</dim>
				</port>
			</input>
			<output>
				<port id="2" precision="FP32" names="1592">
					<dim>1</dim>
					<dim>21</dim>
					<dim>72</dim>
					<dim>72</dim>
				</port>
			</output>
		</layer>
		<layer id="311" name="Relu_344" type="ReLU" version="opset1">
			<input>
				<port id="0" precision="FP32">
					<dim>1</dim>
					<dim>21</dim>
					<dim>72</dim>
					<dim>72</dim>
				</port>
			</input>
			<output>
				<port id="1" precision="FP32" names="1593">
					<dim>1</dim>
					<dim>21</dim>
					<dim>72</dim>
					<dim>72</dim>
				</port>
			</output>
		</layer>
		<layer id="312" name="Multiply_69281_compressed" type="Const" version="opset1">
			<data element_type="f16" shape="21, 21, 3, 3" offset="307410" size="7938" />
			<output>
				<port id="0" precision="FP16">
					<dim>21</dim>
					<dim>21</dim>
					<dim>3</dim>
					<dim>3</dim>
				</port>
			</output>
		</layer>
		<layer id="313" name="Multiply_69281" type="Convert" version="opset1">
			<data destination_type="f32" />
			<rt_info>
				<attribute name="decompression" version="0" />
			</rt_info>
			<input>
				<port id="0" precision="FP16">
					<dim>21</dim>
					<dim>21</dim>
					<dim>3</dim>
					<dim>3</dim>
				</port>
			</input>
			<output>
				<port id="1" precision="FP32">
					<dim>21</dim>
					<dim>21</dim>
					<dim>3</dim>
					<dim>3</dim>
				</port>
			</output>
		</layer>
		<layer id="314" name="Multiply_67938" type="Convolution" version="opset1">
			<data strides="1, 1" dilations="1, 1" pads_begin="1, 1" pads_end="1, 1" auto_pad="explicit" />
			<input>
				<port id="0" precision="FP32">
					<dim>1</dim>
					<dim>21</dim>
					<dim>72</dim>
					<dim>72</dim>
				</port>
				<port id="1" precision="FP32">
					<dim>21</dim>
					<dim>21</dim>
					<dim>3</dim>
					<dim>3</dim>
				</port>
			</input>
			<output>
				<port id="2" precision="FP32">
					<dim>1</dim>
					<dim>21</dim>
					<dim>72</dim>
					<dim>72</dim>
				</port>
			</output>
		</layer>
		<layer id="315" name="Constant_67943_compressed" type="Const" version="opset1">
			<data element_type="f16" shape="1, 21, 1, 1" offset="315348" size="42" />
			<output>
				<port id="0" precision="FP16">
					<dim>1</dim>
					<dim>21</dim>
					<dim>1</dim>
					<dim>1</dim>
				</port>
			</output>
		</layer>
		<layer id="316" name="Constant_67943" type="Convert" version="opset1">
			<data destination_type="f32" />
			<rt_info>
				<attribute name="decompression" version="0" />
			</rt_info>
			<input>
				<port id="0" precision="FP16">
					<dim>1</dim>
					<dim>21</dim>
					<dim>1</dim>
					<dim>1</dim>
				</port>
			</input>
			<output>
				<port id="1" precision="FP32">
					<dim>1</dim>
					<dim>21</dim>
					<dim>1</dim>
					<dim>1</dim>
				</port>
			</output>
		</layer>
		<layer id="317" name="BatchNormalization_346" type="Add" version="opset1">
			<data auto_broadcast="numpy" />
			<input>
				<port id="0" precision="FP32">
					<dim>1</dim>
					<dim>21</dim>
					<dim>72</dim>
					<dim>72</dim>
				</port>
				<port id="1" precision="FP32">
					<dim>1</dim>
					<dim>21</dim>
					<dim>1</dim>
					<dim>1</dim>
				</port>
			</input>
			<output>
				<port id="2" precision="FP32" names="1595">
					<dim>1</dim>
					<dim>21</dim>
					<dim>72</dim>
					<dim>72</dim>
				</port>
			</output>
		</layer>
		<layer id="318" name="Add_347" type="Add" version="opset1">
			<data auto_broadcast="numpy" />
			<input>
				<port id="0" precision="FP32">
					<dim>1</dim>
					<dim>21</dim>
					<dim>72</dim>
					<dim>72</dim>
				</port>
				<port id="1" precision="FP32">
					<dim>1</dim>
					<dim>21</dim>
					<dim>72</dim>
					<dim>72</dim>
				</port>
			</input>
			<output>
				<port id="2" precision="FP32" names="1596">
					<dim>1</dim>
					<dim>21</dim>
					<dim>72</dim>
					<dim>72</dim>
				</port>
			</output>
		</layer>
		<layer id="319" name="Relu_348" type="ReLU" version="opset1">
			<input>
				<port id="0" precision="FP32">
					<dim>1</dim>
					<dim>21</dim>
					<dim>72</dim>
					<dim>72</dim>
				</port>
			</input>
			<output>
				<port id="1" precision="FP32" names="1597">
					<dim>1</dim>
					<dim>21</dim>
					<dim>72</dim>
					<dim>72</dim>
				</port>
			</output>
		</layer>
		<layer id="320" name="Multiply_69290_compressed" type="Const" version="opset1">
			<data element_type="f16" shape="21, 21, 3, 3" offset="315390" size="7938" />
			<output>
				<port id="0" precision="FP16">
					<dim>21</dim>
					<dim>21</dim>
					<dim>3</dim>
					<dim>3</dim>
				</port>
			</output>
		</layer>
		<layer id="321" name="Multiply_69290" type="Convert" version="opset1">
			<data destination_type="f32" />
			<rt_info>
				<attribute name="decompression" version="0" />
			</rt_info>
			<input>
				<port id="0" precision="FP16">
					<dim>21</dim>
					<dim>21</dim>
					<dim>3</dim>
					<dim>3</dim>
				</port>
			</input>
			<output>
				<port id="1" precision="FP32">
					<dim>21</dim>
					<dim>21</dim>
					<dim>3</dim>
					<dim>3</dim>
				</port>
			</output>
		</layer>
		<layer id="322" name="Multiply_67945" type="Convolution" version="opset1">
			<data strides="1, 1" dilations="1, 1" pads_begin="1, 1" pads_end="1, 1" auto_pad="explicit" />
			<input>
				<port id="0" precision="FP32">
					<dim>1</dim>
					<dim>21</dim>
					<dim>72</dim>
					<dim>72</dim>
				</port>
				<port id="1" precision="FP32">
					<dim>21</dim>
					<dim>21</dim>
					<dim>3</dim>
					<dim>3</dim>
				</port>
			</input>
			<output>
				<port id="2" precision="FP32">
					<dim>1</dim>
					<dim>21</dim>
					<dim>72</dim>
					<dim>72</dim>
				</port>
			</output>
		</layer>
		<layer id="323" name="Constant_67950_compressed" type="Const" version="opset1">
			<data element_type="f16" shape="1, 21, 1, 1" offset="323328" size="42" />
			<output>
				<port id="0" precision="FP16">
					<dim>1</dim>
					<dim>21</dim>
					<dim>1</dim>
					<dim>1</dim>
				</port>
			</output>
		</layer>
		<layer id="324" name="Constant_67950" type="Convert" version="opset1">
			<data destination_type="f32" />
			<rt_info>
				<attribute name="decompression" version="0" />
			</rt_info>
			<input>
				<port id="0" precision="FP16">
					<dim>1</dim>
					<dim>21</dim>
					<dim>1</dim>
					<dim>1</dim>
				</port>
			</input>
			<output>
				<port id="1" precision="FP32">
					<dim>1</dim>
					<dim>21</dim>
					<dim>1</dim>
					<dim>1</dim>
				</port>
			</output>
		</layer>
		<layer id="325" name="BatchNormalization_350" type="Add" version="opset1">
			<data auto_broadcast="numpy" />
			<input>
				<port id="0" precision="FP32">
					<dim>1</dim>
					<dim>21</dim>
					<dim>72</dim>
					<dim>72</dim>
				</port>
				<port id="1" precision="FP32">
					<dim>1</dim>
					<dim>21</dim>
					<dim>1</dim>
					<dim>1</dim>
				</port>
			</input>
			<output>
				<port id="2" precision="FP32" names="1599">
					<dim>1</dim>
					<dim>21</dim>
					<dim>72</dim>
					<dim>72</dim>
				</port>
			</output>
		</layer>
		<layer id="326" name="Relu_351" type="ReLU" version="opset1">
			<input>
				<port id="0" precision="FP32">
					<dim>1</dim>
					<dim>21</dim>
					<dim>72</dim>
					<dim>72</dim>
				</port>
			</input>
			<output>
				<port id="1" precision="FP32" names="1600">
					<dim>1</dim>
					<dim>21</dim>
					<dim>72</dim>
					<dim>72</dim>
				</port>
			</output>
		</layer>
		<layer id="327" name="Multiply_69299_compressed" type="Const" version="opset1">
			<data element_type="f16" shape="21, 21, 3, 3" offset="323370" size="7938" />
			<output>
				<port id="0" precision="FP16">
					<dim>21</dim>
					<dim>21</dim>
					<dim>3</dim>
					<dim>3</dim>
				</port>
			</output>
		</layer>
		<layer id="328" name="Multiply_69299" type="Convert" version="opset1">
			<data destination_type="f32" />
			<rt_info>
				<attribute name="decompression" version="0" />
			</rt_info>
			<input>
				<port id="0" precision="FP16">
					<dim>21</dim>
					<dim>21</dim>
					<dim>3</dim>
					<dim>3</dim>
				</port>
			</input>
			<output>
				<port id="1" precision="FP32">
					<dim>21</dim>
					<dim>21</dim>
					<dim>3</dim>
					<dim>3</dim>
				</port>
			</output>
		</layer>
		<layer id="329" name="Multiply_67952" type="Convolution" version="opset1">
			<data strides="1, 1" dilations="1, 1" pads_begin="1, 1" pads_end="1, 1" auto_pad="explicit" />
			<input>
				<port id="0" precision="FP32">
					<dim>1</dim>
					<dim>21</dim>
					<dim>72</dim>
					<dim>72</dim>
				</port>
				<port id="1" precision="FP32">
					<dim>21</dim>
					<dim>21</dim>
					<dim>3</dim>
					<dim>3</dim>
				</port>
			</input>
			<output>
				<port id="2" precision="FP32">
					<dim>1</dim>
					<dim>21</dim>
					<dim>72</dim>
					<dim>72</dim>
				</port>
			</output>
		</layer>
		<layer id="330" name="Constant_67957_compressed" type="Const" version="opset1">
			<data element_type="f16" shape="1, 21, 1, 1" offset="331308" size="42" />
			<output>
				<port id="0" precision="FP16">
					<dim>1</dim>
					<dim>21</dim>
					<dim>1</dim>
					<dim>1</dim>
				</port>
			</output>
		</layer>
		<layer id="331" name="Constant_67957" type="Convert" version="opset1">
			<data destination_type="f32" />
			<rt_info>
				<attribute name="decompression" version="0" />
			</rt_info>
			<input>
				<port id="0" precision="FP16">
					<dim>1</dim>
					<dim>21</dim>
					<dim>1</dim>
					<dim>1</dim>
				</port>
			</input>
			<output>
				<port id="1" precision="FP32">
					<dim>1</dim>
					<dim>21</dim>
					<dim>1</dim>
					<dim>1</dim>
				</port>
			</output>
		</layer>
		<layer id="332" name="BatchNormalization_353" type="Add" version="opset1">
			<data auto_broadcast="numpy" />
			<input>
				<port id="0" precision="FP32">
					<dim>1</dim>
					<dim>21</dim>
					<dim>72</dim>
					<dim>72</dim>
				</port>
				<port id="1" precision="FP32">
					<dim>1</dim>
					<dim>21</dim>
					<dim>1</dim>
					<dim>1</dim>
				</port>
			</input>
			<output>
				<port id="2" precision="FP32" names="1602">
					<dim>1</dim>
					<dim>21</dim>
					<dim>72</dim>
					<dim>72</dim>
				</port>
			</output>
		</layer>
		<layer id="333" name="Add_354" type="Add" version="opset1">
			<data auto_broadcast="numpy" />
			<input>
				<port id="0" precision="FP32">
					<dim>1</dim>
					<dim>21</dim>
					<dim>72</dim>
					<dim>72</dim>
				</port>
				<port id="1" precision="FP32">
					<dim>1</dim>
					<dim>21</dim>
					<dim>72</dim>
					<dim>72</dim>
				</port>
			</input>
			<output>
				<port id="2" precision="FP32" names="1603">
					<dim>1</dim>
					<dim>21</dim>
					<dim>72</dim>
					<dim>72</dim>
				</port>
			</output>
		</layer>
		<layer id="334" name="Relu_355" type="ReLU" version="opset1">
			<input>
				<port id="0" precision="FP32">
					<dim>1</dim>
					<dim>21</dim>
					<dim>72</dim>
					<dim>72</dim>
				</port>
			</input>
			<output>
				<port id="1" precision="FP32" names="1604,1634">
					<dim>1</dim>
					<dim>21</dim>
					<dim>72</dim>
					<dim>72</dim>
				</port>
			</output>
		</layer>
		<layer id="335" name="Multiply_69308_compressed" type="Const" version="opset1">
			<data element_type="f16" shape="42, 21, 3, 3" offset="331350" size="15876" />
			<output>
				<port id="0" precision="FP16">
					<dim>42</dim>
					<dim>21</dim>
					<dim>3</dim>
					<dim>3</dim>
				</port>
			</output>
		</layer>
		<layer id="336" name="Multiply_69308" type="Convert" version="opset1">
			<data destination_type="f32" />
			<rt_info>
				<attribute name="decompression" version="0" />
			</rt_info>
			<input>
				<port id="0" precision="FP16">
					<dim>42</dim>
					<dim>21</dim>
					<dim>3</dim>
					<dim>3</dim>
				</port>
			</input>
			<output>
				<port id="1" precision="FP32">
					<dim>42</dim>
					<dim>21</dim>
					<dim>3</dim>
					<dim>3</dim>
				</port>
			</output>
		</layer>
		<layer id="337" name="Multiply_67959" type="Convolution" version="opset1">
			<data strides="2, 2" dilations="1, 1" pads_begin="1, 1" pads_end="1, 1" auto_pad="explicit" />
			<input>
				<port id="0" precision="FP32">
					<dim>1</dim>
					<dim>21</dim>
					<dim>72</dim>
					<dim>72</dim>
				</port>
				<port id="1" precision="FP32">
					<dim>42</dim>
					<dim>21</dim>
					<dim>3</dim>
					<dim>3</dim>
				</port>
			</input>
			<output>
				<port id="2" precision="FP32">
					<dim>1</dim>
					<dim>42</dim>
					<dim>36</dim>
					<dim>36</dim>
				</port>
			</output>
		</layer>
		<layer id="338" name="Constant_67964_compressed" type="Const" version="opset1">
			<data element_type="f16" shape="1, 42, 1, 1" offset="347226" size="84" />
			<output>
				<port id="0" precision="FP16">
					<dim>1</dim>
					<dim>42</dim>
					<dim>1</dim>
					<dim>1</dim>
				</port>
			</output>
		</layer>
		<layer id="339" name="Constant_67964" type="Convert" version="opset1">
			<data destination_type="f32" />
			<rt_info>
				<attribute name="decompression" version="0" />
			</rt_info>
			<input>
				<port id="0" precision="FP16">
					<dim>1</dim>
					<dim>42</dim>
					<dim>1</dim>
					<dim>1</dim>
				</port>
			</input>
			<output>
				<port id="1" precision="FP32">
					<dim>1</dim>
					<dim>42</dim>
					<dim>1</dim>
					<dim>1</dim>
				</port>
			</output>
		</layer>
		<layer id="340" name="BatchNormalization_339" type="Add" version="opset1">
			<data auto_broadcast="numpy" />
			<input>
				<port id="0" precision="FP32">
…
		<edge from-layer="1732" from-port="0" to-layer="1733" to-port="0" />
		<edge from-layer="1733" from-port="1" to-layer="1734" to-port="1" />
		<edge from-layer="1734" from-port="2" to-layer="1737" to-port="0" />
		<edge from-layer="1735" from-port="0" to-layer="1736" to-port="0" />
		<edge from-layer="1736" from-port="1" to-layer="1737" to-port="1" />
		<edge from-layer="1737" from-port="2" to-layer="1738" to-port="0" />
		<edge from-layer="1738" from-port="1" to-layer="1741" to-port="0" />
		<edge from-layer="1739" from-port="0" to-layer="1740" to-port="0" />
		<edge from-layer="1740" from-port="1" to-layer="1741" to-port="1" />
		<edge from-layer="1741" from-port="2" to-layer="1744" to-port="0" />
		<edge from-layer="1742" from-port="0" to-layer="1743" to-port="0" />
		<edge from-layer="1743" from-port="1" to-layer="1744" to-port="1" />
		<edge from-layer="1744" from-port="2" to-layer="1745" to-port="0" />
		<edge from-layer="1745" from-port="1" to-layer="1748" to-port="0" />
		<edge from-layer="1746" from-port="0" to-layer="1747" to-port="0" />
		<edge from-layer="1747" from-port="1" to-layer="1748" to-port="1" />
		<edge from-layer="1748" from-port="2" to-layer="1751" to-port="0" />
		<edge from-layer="1749" from-port="0" to-layer="1750" to-port="0" />
		<edge from-layer="1750" from-port="1" to-layer="1751" to-port="1" />
		<edge from-layer="1751" from-port="2" to-layer="1765" to-port="0" />
		<edge from-layer="1752" from-port="0" to-layer="1753" to-port="0" />
		<edge from-layer="1753" from-port="1" to-layer="1754" to-port="1" />
		<edge from-layer="1754" from-port="2" to-layer="1757" to-port="0" />
		<edge from-layer="1755" from-port="0" to-layer="1756" to-port="0" />
		<edge from-layer="1756" from-port="1" to-layer="1757" to-port="1" />
		<edge from-layer="1757" from-port="2" to-layer="1758" to-port="0" />
		<edge from-layer="1758" from-port="1" to-layer="1761" to-port="0" />
		<edge from-layer="1759" from-port="0" to-layer="1760" to-port="0" />
		<edge from-layer="1760" from-port="1" to-layer="1761" to-port="1" />
		<edge from-layer="1761" from-port="2" to-layer="1764" to-port="0" />
		<edge from-layer="1762" from-port="0" to-layer="1763" to-port="0" />
		<edge from-layer="1763" from-port="1" to-layer="1764" to-port="1" />
		<edge from-layer="1764" from-port="2" to-layer="1765" to-port="1" />
		<edge from-layer="1765" from-port="2" to-layer="1772" to-port="0" />
		<edge from-layer="1766" from-port="0" to-layer="1767" to-port="0" />
		<edge from-layer="1767" from-port="1" to-layer="1768" to-port="1" />
		<edge from-layer="1768" from-port="2" to-layer="1771" to-port="0" />
		<edge from-layer="1769" from-port="0" to-layer="1770" to-port="0" />
		<edge from-layer="1770" from-port="1" to-layer="1771" to-port="1" />
		<edge from-layer="1771" from-port="2" to-layer="1772" to-port="1" />
		<edge from-layer="1772" from-port="2" to-layer="1773" to-port="0" />
		<edge from-layer="1773" from-port="2" to-layer="1774" to-port="0" />
		<edge from-layer="1774" from-port="1" to-layer="1777" to-port="0" />
		<edge from-layer="1774" from-port="1" to-layer="1788" to-port="1" />
		<edge from-layer="1775" from-port="0" to-layer="1776" to-port="0" />
		<edge from-layer="1776" from-port="1" to-layer="1777" to-port="1" />
		<edge from-layer="1777" from-port="2" to-layer="1780" to-port="0" />
		<edge from-layer="1778" from-port="0" to-layer="1779" to-port="0" />
		<edge from-layer="1779" from-port="1" to-layer="1780" to-port="1" />
		<edge from-layer="1780" from-port="2" to-layer="1781" to-port="0" />
		<edge from-layer="1781" from-port="1" to-layer="1784" to-port="0" />
		<edge from-layer="1782" from-port="0" to-layer="1783" to-port="0" />
		<edge from-layer="1783" from-port="1" to-layer="1784" to-port="1" />
		<edge from-layer="1784" from-port="2" to-layer="1787" to-port="0" />
		<edge from-layer="1785" from-port="0" to-layer="1786" to-port="0" />
		<edge from-layer="1786" from-port="1" to-layer="1787" to-port="1" />
		<edge from-layer="1787" from-port="2" to-layer="1788" to-port="0" />
		<edge from-layer="1788" from-port="2" to-layer="1789" to-port="0" />
		<edge from-layer="1789" from-port="1" to-layer="1792" to-port="0" />
		<edge from-layer="1789" from-port="1" to-layer="1803" to-port="1" />
		<edge from-layer="1790" from-port="0" to-layer="1791" to-port="0" />
		<edge from-layer="1791" from-port="1" to-layer="1792" to-port="1" />
		<edge from-layer="1792" from-port="2" to-layer="1795" to-port="0" />
		<edge from-layer="1793" from-port="0" to-layer="1794" to-port="0" />
		<edge from-layer="1794" from-port="1" to-layer="1795" to-port="1" />
		<edge from-layer="1795" from-port="2" to-layer="1796" to-port="0" />
		<edge from-layer="1796" from-port="1" to-layer="1799" to-port="0" />
		<edge from-layer="1797" from-port="0" to-layer="1798" to-port="0" />
		<edge from-layer="1798" from-port="1" to-layer="1799" to-port="1" />
		<edge from-layer="1799" from-port="2" to-layer="1802" to-port="0" />
		<edge from-layer="1800" from-port="0" to-layer="1801" to-port="0" />
		<edge from-layer="1801" from-port="1" to-layer="1802" to-port="1" />
		<edge from-layer="1802" from-port="2" to-layer="1803" to-port="0" />
		<edge from-layer="1803" from-port="2" to-layer="1804" to-port="0" />
		<edge from-layer="1804" from-port="1" to-layer="1807" to-port="0" />
		<edge from-layer="1804" from-port="1" to-layer="2053" to-port="0" />
		<edge from-layer="1804" from-port="1" to-layer="2201" to-port="1" />
		<edge from-layer="1804" from-port="1" to-layer="1923" to-port="0" />
		<edge from-layer="1805" from-port="0" to-layer="1806" to-port="0" />
		<edge from-layer="1806" from-port="1" to-layer="1807" to-port="1" />
		<edge from-layer="1807" from-port="2" to-layer="1810" to-port="0" />
		<edge from-layer="1808" from-port="0" to-layer="1809" to-port="0" />
		<edge from-layer="1809" from-port="1" to-layer="1810" to-port="1" />
		<edge from-layer="1810" from-port="2" to-layer="1842" to-port="0" />
		<edge from-layer="1810" from-port="2" to-layer="1811" to-port="0" />
		<edge from-layer="1811" from-port="1" to-layer="1838" to-port="0" />
		<edge from-layer="1811" from-port="1" to-layer="1818" to-port="0" />
		<edge from-layer="1811" from-port="1" to-layer="1827" to-port="0" />
		<edge from-layer="1811" from-port="1" to-layer="1815" to-port="0" />
		<edge from-layer="1812" from-port="0" to-layer="1815" to-port="1" />
		<edge from-layer="1813" from-port="0" to-layer="1815" to-port="2" />
		<edge from-layer="1814" from-port="0" to-layer="1815" to-port="3" />
		<edge from-layer="1815" from-port="4" to-layer="1836" to-port="0" />
		<edge from-layer="1816" from-port="0" to-layer="1818" to-port="1" />
		<edge from-layer="1817" from-port="0" to-layer="1818" to-port="2" />
		<edge from-layer="1818" from-port="3" to-layer="1819" to-port="0" />
		<edge from-layer="1819" from-port="1" to-layer="1821" to-port="0" />
		<edge from-layer="1820" from-port="0" to-layer="1821" to-port="1" />
		<edge from-layer="1821" from-port="2" to-layer="1822" to-port="0" />
		<edge from-layer="1822" from-port="1" to-layer="1824" to-port="0" />
		<edge from-layer="1823" from-port="0" to-layer="1824" to-port="1" />
		<edge from-layer="1824" from-port="2" to-layer="1834" to-port="0" />
		<edge from-layer="1825" from-port="0" to-layer="1827" to-port="1" />
		<edge from-layer="1826" from-port="0" to-layer="1827" to-port="2" />
		<edge from-layer="1827" from-port="3" to-layer="1828" to-port="0" />
		<edge from-layer="1828" from-port="1" to-layer="1830" to-port="0" />
		<edge from-layer="1829" from-port="0" to-layer="1830" to-port="1" />
		<edge from-layer="1830" from-port="2" to-layer="1831" to-port="0" />
		<edge from-layer="1831" from-port="1" to-layer="1833" to-port="0" />
		<edge from-layer="1832" from-port="0" to-layer="1833" to-port="1" />
		<edge from-layer="1833" from-port="2" to-layer="1834" to-port="1" />
		<edge from-layer="1834" from-port="2" to-layer="1835" to-port="0" />
		<edge from-layer="1835" from-port="1" to-layer="1836" to-port="1" />
		<edge from-layer="1836" from-port="2" to-layer="1842" to-port="1" />
		<edge from-layer="1836" from-port="2" to-layer="1837" to-port="0" />
		<edge from-layer="1837" from-port="1" to-layer="1839" to-port="0" />
		<edge from-layer="1838" from-port="1" to-layer="1839" to-port="1" />
		<edge from-layer="1839" from-port="2" to-layer="1841" to-port="0" />
		<edge from-layer="1840" from-port="0" to-layer="1841" to-port="1" />
		<edge from-layer="1841" from-port="2" to-layer="1842" to-port="2" />
		<edge from-layer="1842" from-port="3" to-layer="1843" to-port="1" />
		<edge from-layer="1843" from-port="2" to-layer="1844" to-port="0" />
		<edge from-layer="1844" from-port="1" to-layer="1858" to-port="1" />
		<edge from-layer="1844" from-port="1" to-layer="1847" to-port="0" />
		<edge from-layer="1845" from-port="0" to-layer="1846" to-port="0" />
		<edge from-layer="1846" from-port="1" to-layer="1847" to-port="1" />
		<edge from-layer="1847" from-port="2" to-layer="1850" to-port="0" />
		<edge from-layer="1848" from-port="0" to-layer="1849" to-port="0" />
		<edge from-layer="1849" from-port="1" to-layer="1850" to-port="1" />
		<edge from-layer="1850" from-port="2" to-layer="1851" to-port="0" />
		<edge from-layer="1851" from-port="1" to-layer="1854" to-port="0" />
		<edge from-layer="1852" from-port="0" to-layer="1853" to-port="0" />
		<edge from-layer="1853" from-port="1" to-layer="1854" to-port="1" />
		<edge from-layer="1854" from-port="2" to-layer="1857" to-port="0" />
		<edge from-layer="1855" from-port="0" to-layer="1856" to-port="0" />
		<edge from-layer="1856" from-port="1" to-layer="1857" to-port="1" />
		<edge from-layer="1857" from-port="2" to-layer="1858" to-port="0" />
		<edge from-layer="1858" from-port="2" to-layer="1859" to-port="0" />
		<edge from-layer="1859" from-port="1" to-layer="1862" to-port="0" />
		<edge from-layer="1859" from-port="1" to-layer="1873" to-port="1" />
		<edge from-layer="1860" from-port="0" to-layer="1861" to-port="0" />
		<edge from-layer="1861" from-port="1" to-layer="1862" to-port="1" />
		<edge from-layer="1862" from-port="2" to-layer="1865" to-port="0" />
		<edge from-layer="1863" from-port="0" to-layer="1864" to-port="0" />
		<edge from-layer="1864" from-port="1" to-layer="1865" to-port="1" />
		<edge from-layer="1865" from-port="2" to-layer="1866" to-port="0" />
		<edge from-layer="1866" from-port="1" to-layer="1869" to-port="0" />
		<edge from-layer="1867" from-port="0" to-layer="1868" to-port="0" />
		<edge from-layer="1868" from-port="1" to-layer="1869" to-port="1" />
		<edge from-layer="1869" from-port="2" to-layer="1872" to-port="0" />
		<edge from-layer="1870" from-port="0" to-layer="1871" to-port="0" />
		<edge from-layer="1871" from-port="1" to-layer="1872" to-port="1" />
		<edge from-layer="1872" from-port="2" to-layer="1873" to-port="0" />
		<edge from-layer="1873" from-port="2" to-layer="1874" to-port="0" />
		<edge from-layer="1874" from-port="1" to-layer="2029" to-port="0" />
		<edge from-layer="1875" from-port="0" to-layer="1876" to-port="0" />
		<edge from-layer="1876" from-port="1" to-layer="1877" to-port="1" />
		<edge from-layer="1877" from-port="2" to-layer="1880" to-port="0" />
		<edge from-layer="1878" from-port="0" to-layer="1879" to-port="0" />
		<edge from-layer="1879" from-port="1" to-layer="1880" to-port="1" />
		<edge from-layer="1880" from-port="2" to-layer="1881" to-port="0" />
		<edge from-layer="1881" from-port="2" to-layer="1920" to-port="0" />
		<edge from-layer="1882" from-port="0" to-layer="1883" to-port="0" />
		<edge from-layer="1883" from-port="1" to-layer="1884" to-port="1" />
		<edge from-layer="1884" from-port="2" to-layer="1887" to-port="0" />
		<edge from-layer="1885" from-port="0" to-layer="1886" to-port="0" />
		<edge from-layer="1886" from-port="1" to-layer="1887" to-port="1" />
		<edge from-layer="1887" from-port="2" to-layer="1888" to-port="0" />
		<edge from-layer="1887" from-port="2" to-layer="1919" to-port="0" />
		<edge from-layer="1888" from-port="1" to-layer="1915" to-port="0" />
		<edge from-layer="1888" from-port="1" to-layer="1904" to-port="0" />
		<edge from-layer="1888" from-port="1" to-layer="1895" to-port="0" />
		<edge from-layer="1888" from-port="1" to-layer="1892" to-port="0" />
		<edge from-layer="1889" from-port="0" to-layer="1892" to-port="1" />
		<edge from-layer="1890" from-port="0" to-layer="1892" to-port="2" />
		<edge from-layer="1891" from-port="0" to-layer="1892" to-port="3" />
		<edge from-layer="1892" from-port="4" to-layer="1913" to-port="0" />
		<edge from-layer="1893" from-port="0" to-layer="1895" to-port="1" />
		<edge from-layer="1894" from-port="0" to-layer="1895" to-port="2" />
		<edge from-layer="1895" from-port="3" to-layer="1896" to-port="0" />
		<edge from-layer="1896" from-port="1" to-layer="1898" to-port="0" />
		<edge from-layer="1897" from-port="0" to-layer="1898" to-port="1" />
		<edge from-layer="1898" from-port="2" to-layer="1899" to-port="0" />
		<edge from-layer="1899" from-port="1" to-layer="1901" to-port="0" />
		<edge from-layer="1900" from-port="0" to-layer="1901" to-port="1" />
		<edge from-layer="1901" from-port="2" to-layer="1911" to-port="0" />
		<edge from-layer="1902" from-port="0" to-layer="1904" to-port="1" />
		<edge from-layer="1903" from-port="0" to-layer="1904" to-port="2" />
		<edge from-layer="1904" from-port="3" to-layer="1905" to-port="0" />
		<edge from-layer="1905" from-port="1" to-layer="1907" to-port="0" />
		<edge from-layer="1906" from-port="0" to-layer="1907" to-port="1" />
		<edge from-layer="1907" from-port="2" to-layer="1908" to-port="0" />
		<edge from-layer="1908" from-port="1" to-layer="1910" to-port="0" />
		<edge from-layer="1909" from-port="0" to-layer="1910" to-port="1" />
		<edge from-layer="1910" from-port="2" to-layer="1911" to-port="1" />
		<edge from-layer="1911" from-port="2" to-layer="1912" to-port="0" />
		<edge from-layer="1912" from-port="1" to-layer="1913" to-port="1" />
		<edge from-layer="1913" from-port="2" to-layer="1919" to-port="1" />
		<edge from-layer="1913" from-port="2" to-layer="1914" to-port="0" />
		<edge from-layer="1914" from-port="1" to-layer="1916" to-port="0" />
		<edge from-layer="1915" from-port="1" to-layer="1916" to-port="1" />
		<edge from-layer="1916" from-port="2" to-layer="1918" to-port="0" />
		<edge from-layer="1917" from-port="0" to-layer="1918" to-port="1" />
		<edge from-layer="1918" from-port="2" to-layer="1919" to-port="2" />
		<edge from-layer="1919" from-port="3" to-layer="1920" to-port="1" />
		<edge from-layer="1920" from-port="2" to-layer="1959" to-port="0" />
		<edge from-layer="1921" from-port="0" to-layer="1922" to-port="0" />
		<edge from-layer="1922" from-port="1" to-layer="1923" to-port="1" />
		<edge from-layer="1923" from-port="2" to-layer="1926" to-port="0" />
		<edge from-layer="1924" from-port="0" to-layer="1925" to-port="0" />
		<edge from-layer="1925" from-port="1" to-layer="1926" to-port="1" />
		<edge from-layer="1926" from-port="2" to-layer="1958" to-port="0" />
		<edge from-layer="1926" from-port="2" to-layer="1927" to-port="0" />
		<edge from-layer="1927" from-port="1" to-layer="1934" to-port="0" />
		<edge from-layer="1927" from-port="1" to-layer="1943" to-port="0" />
		<edge from-layer="1927" from-port="1" to-layer="1954" to-port="0" />
		<edge from-layer="1927" from-port="1" to-layer="1931" to-port="0" />
		<edge from-layer="1928" from-port="0" to-layer="1931" to-port="1" />
		<edge from-layer="1929" from-port="0" to-layer="1931" to-port="2" />
		<edge from-layer="1930" from-port="0" to-layer="1931" to-port="3" />
		<edge from-layer="1931" from-port="4" to-layer="1952" to-port="0" />
		<edge from-layer="1932" from-port="0" to-layer="1934" to-port="1" />
		<edge from-layer="1933" from-port="0" to-layer="1934" to-port="2" />
		<edge from-layer="1934" from-port="3" to-layer="1935" to-port="0" />
		<edge from-layer="1935" from-port="1" to-layer="1937" to-port="0" />
		<edge from-layer="1936" from-port="0" to-layer="1937" to-port="1" />
		<edge from-layer="1937" from-port="2" to-layer="1938" to-port="0" />
		<edge from-layer="1938" from-port="1" to-layer="1940" to-port="0" />
		<edge from-layer="1939" from-port="0" to-layer="1940" to-port="1" />
		<edge from-layer="1940" from-port="2" to-layer="1950" to-port="0" />
		<edge from-layer="1941" from-port="0" to-layer="1943" to-port="1" />
		<edge from-layer="1942" from-port="0" to-layer="1943" to-port="2" />
		<edge from-layer="1943" from-port="3" to-layer="1944" to-port="0" />
		<edge from-layer="1944" from-port="1" to-layer="1946" to-port="0" />
		<edge from-layer="1945" from-port="0" to-layer="1946" to-port="1" />
		<edge from-layer="1946" from-port="2" to-layer="1947" to-port="0" />
		<edge from-layer="1947" from-port="1" to-layer="1949" to-port="0" />
		<edge from-layer="1948" from-port="0" to-layer="1949" to-port="1" />
		<edge from-layer="1949" from-port="2" to-layer="1950" to-port="1" />
		<edge from-layer="1950" from-port="2" to-layer="1951" to-port="0" />
		<edge from-layer="1951" from-port="1" to-layer="1952" to-port="1" />
		<edge from-layer="1952" from-port="2" to-layer="1958" to-port="1" />
		<edge from-layer="1952" from-port="2" to-layer="1953" to-port="0" />
		<edge from-layer="1953" from-port="1" to-layer="1955" to-port="0" />
		<edge from-layer="1954" from-port="1" to-layer="1955" to-port="1" />
		<edge from-layer="1955" from-port="2" to-layer="1957" to-port="0" />
		<edge from-layer="1956" from-port="0" to-layer="1957" to-port="1" />
		<edge from-layer="1957" from-port="2" to-layer="1958" to-port="2" />
		<edge from-layer="1958" from-port="3" to-layer="1959" to-port="1" />
		<edge from-layer="1959" from-port="2" to-layer="1960" to-port="0" />
		<edge from-layer="1960" from-port="1" to-layer="1974" to-port="1" />
		<edge from-layer="1960" from-port="1" to-layer="1963" to-port="0" />
		<edge from-layer="1961" from-port="0" to-layer="1962" to-port="0" />
		<edge from-layer="1962" from-port="1" to-layer="1963" to-port="1" />
		<edge from-layer="1963" from-port="2" to-layer="1966" to-port="0" />
		<edge from-layer="1964" from-port="0" to-layer="1965" to-port="0" />
		<edge from-layer="1965" from-port="1" to-layer="1966" to-port="1" />
		<edge from-layer="1966" from-port="2" to-layer="1967" to-port="0" />
		<edge from-layer="1967" from-port="1" to-layer="1970" to-port="0" />
		<edge from-layer="1968" from-port="0" to-layer="1969" to-port="0" />
		<edge from-layer="1969" from-port="1" to-layer="1970" to-port="1" />
		<edge from-layer="1970" from-port="2" to-layer="1973" to-port="0" />
		<edge from-layer="1971" from-port="0" to-layer="1972" to-port="0" />
		<edge from-layer="1972" from-port="1" to-layer="1973" to-port="1" />
		<edge from-layer="1973" from-port="2" to-layer="1974" to-port="0" />
		<edge from-layer="1974" from-port="2" to-layer="1975" to-port="0" />
		<edge from-layer="1975" from-port="1" to-layer="1989" to-port="1" />
		<edge from-layer="1975" from-port="1" to-layer="1978" to-port="0" />
		<edge from-layer="1976" from-port="0" to-layer="1977" to-port="0" />
		<edge from-layer="1977" from-port="1" to-layer="1978" to-port="1" />
		<edge from-layer="1978" from-port="2" to-layer="1981" to-port="0" />
		<edge from-layer="1979" from-port="0" to-layer="1980" to-port="0" />
		<edge from-layer="1980" from-port="1" to-layer="1981" to-port="1" />
		<edge from-layer="1981" from-port="2" to-layer="1982" to-port="0" />
		<edge from-layer="1982" from-port="1" to-layer="1985" to-port="0" />
		<edge from-layer="1983" from-port="0" to-layer="1984" to-port="0" />
		<edge from-layer="1984" from-port="1" to-layer="1985" to-port="1" />
		<edge from-layer="1985" from-port="2" to-layer="1988" to-port="0" />
		<edge from-layer="1986" from-port="0" to-layer="1987" to-port="0" />
		<edge from-layer="1987" from-port="1" to-layer="1988" to-port="1" />
		<edge from-layer="1988" from-port="2" to-layer="1989" to-port="0" />
		<edge from-layer="1989" from-port="2" to-layer="1990" to-port="0" />
		<edge from-layer="1990" from-port="1" to-layer="1993" to-port="0" />
		<edge from-layer="1991" from-port="0" to-layer="1992" to-port="0" />
		<edge from-layer="1992" from-port="1" to-layer="1993" to-port="1" />
		<edge from-layer="1993" from-port="2" to-layer="1996" to-port="0" />
		<edge from-layer="1994" from-port="0" to-layer="1995" to-port="0" />
		<edge from-layer="1995" from-port="1" to-layer="1996" to-port="1" />
		<edge from-layer="1996" from-port="2" to-layer="2028" to-port="0" />
		<edge from-layer="1996" from-port="2" to-layer="1997" to-port="0" />
		<edge from-layer="1997" from-port="1" to-layer="2004" to-port="0" />
		<edge from-layer="1997" from-port="1" to-layer="2013" to-port="0" />
		<edge from-layer="1997" from-port="1" to-layer="2001" to-port="0" />
		<edge from-layer="1997" from-port="1" to-layer="2024" to-port="0" />
		<edge from-layer="1998" from-port="0" to-layer="2001" to-port="1" />
		<edge from-layer="1999" from-port="0" to-layer="2001" to-port="2" />
		<edge from-layer="2000" from-port="0" to-layer="2001" to-port="3" />
		<edge from-layer="2001" from-port="4" to-layer="2022" to-port="0" />
		<edge from-layer="2002" from-port="0" to-layer="2004" to-port="1" />
		<edge from-layer="2003" from-port="0" to-layer="2004" to-port="2" />
		<edge from-layer="2004" from-port="3" to-layer="2005" to-port="0" />
		<edge from-layer="2005" from-port="1" to-layer="2007" to-port="0" />
		<edge from-layer="2006" from-port="0" to-layer="2007" to-port="1" />
		<edge from-layer="2007" from-port="2" to-layer="2008" to-port="0" />
		<edge from-layer="2008" from-port="1" to-layer="2010" to-port="0" />
		<edge from-layer="2009" from-port="0" to-layer="2010" to-port="1" />
		<edge from-layer="2010" from-port="2" to-layer="2020" to-port="0" />
		<edge from-layer="2011" from-port="0" to-layer="2013" to-port="1" />
		<edge from-layer="2012" from-port="0" to-layer="2013" to-port="2" />
		<edge from-layer="2013" from-port="3" to-layer="2014" to-port="0" />
		<edge from-layer="2014" from-port="1" to-layer="2016" to-port="0" />
		<edge from-layer="2015" from-port="0" to-layer="2016" to-port="1" />
		<edge from-layer="2016" from-port="2" to-layer="2017" to-port="0" />
		<edge from-layer="2017" from-port="1" to-layer="2019" to-port="0" />
		<edge from-layer="2018" from-port="0" to-layer="2019" to-port="1" />
		<edge from-layer="2019" from-port="2" to-layer="2020" to-port="1" />
		<edge from-layer="2020" from-port="2" to-layer="2021" to-port="0" />
		<edge from-layer="2021" from-port="1" to-layer="2022" to-port="1" />
		<edge from-layer="2022" from-port="2" to-layer="2028" to-port="1" />
		<edge from-layer="2022" from-port="2" to-layer="2023" to-port="0" />
		<edge from-layer="2023" from-port="1" to-layer="2025" to-port="0" />
		<edge from-layer="2024" from-port="1" to-layer="2025" to-port="1" />
		<edge from-layer="2025" from-port="2" to-layer="2027" to-port="0" />
		<edge from-layer="2026" from-port="0" to-layer="2027" to-port="1" />
		<edge from-layer="2027" from-port="2" to-layer="2028" to-port="2" />
		<edge from-layer="2028" from-port="3" to-layer="2029" to-port="1" />
		<edge from-layer="2029" from-port="2" to-layer="2159" to-port="0" />
		<edge from-layer="2030" from-port="0" to-layer="2031" to-port="0" />
		<edge from-layer="2031" from-port="1" to-layer="2032" to-port="1" />
		<edge from-layer="2032" from-port="2" to-layer="2035" to-port="0" />
		<edge from-layer="2033" from-port="0" to-layer="2034" to-port="0" />
		<edge from-layer="2034" from-port="1" to-layer="2035" to-port="1" />
		<edge from-layer="2035" from-port="2" to-layer="2036" to-port="0" />
		<edge from-layer="2036" from-port="1" to-layer="2039" to-port="0" />
		<edge from-layer="2037" from-port="0" to-layer="2038" to-port="0" />
		<edge from-layer="2038" from-port="1" to-layer="2039" to-port="1" />
		<edge from-layer="2039" from-port="2" to-layer="2042" to-port="0" />
		<edge from-layer="2040" from-port="0" to-layer="2041" to-port="0" />
		<edge from-layer="2041" from-port="1" to-layer="2042" to-port="1" />
		<edge from-layer="2042" from-port="2" to-layer="2049" to-port="0" />
		<edge from-layer="2043" from-port="0" to-layer="2044" to-port="0" />
		<edge from-layer="2044" from-port="1" to-layer="2045" to-port="1" />
		<edge from-layer="2045" from-port="2" to-layer="2048" to-port="0" />
		<edge from-layer="2046" from-port="0" to-layer="2047" to-port="0" />
		<edge from-layer="2047" from-port="1" to-layer="2048" to-port="1" />
		<edge from-layer="2048" from-port="2" to-layer="2049" to-port="1" />
		<edge from-layer="2049" from-port="2" to-layer="2050" to-port="0" />
		<edge from-layer="2050" from-port="2" to-layer="2089" to-port="0" />
		<edge from-layer="2051" from-port="0" to-layer="2052" to-port="0" />
		<edge from-layer="2052" from-port="1" to-layer="2053" to-port="1" />
		<edge from-layer="2053" from-port="2" to-layer="2056" to-port="0" />
		<edge from-layer="2054" from-port="0" to-layer="2055" to-port="0" />
		<edge from-layer="2055" from-port="1" to-layer="2056" to-port="1" />
		<edge from-layer="2056" from-port="2" to-layer="2057" to-port="0" />
		<edge from-layer="2056" from-port="2" to-layer="2088" to-port="0" />
		<edge from-layer="2057" from-port="1" to-layer="2061" to-port="0" />
		<edge from-layer="2057" from-port="1" to-layer="2084" to-port="0" />
		<edge from-layer="2057" from-port="1" to-layer="2073" to-port="0" />
		<edge from-layer="2057" from-port="1" to-layer="2064" to-port="0" />
		<edge from-layer="2058" from-port="0" to-layer="2061" to-port="1" />
		<edge from-layer="2059" from-port="0" to-layer="2061" to-port="2" />
		<edge from-layer="2060" from-port="0" to-layer="2061" to-port="3" />
		<edge from-layer="2061" from-port="4" to-layer="2082" to-port="0" />
		<edge from-layer="2062" from-port="0" to-layer="2064" to-port="1" />
		<edge from-layer="2063" from-port="0" to-layer="2064" to-port="2" />
		<edge from-layer="2064" from-port="3" to-layer="2065" to-port="0" />
		<edge from-layer="2065" from-port="1" to-layer="2067" to-port="0" />
		<edge from-layer="2066" from-port="0" to-layer="2067" to-port="1" />
		<edge from-layer="2067" from-port="2" to-layer="2068" to-port="0" />
		<edge from-layer="2068" from-port="1" to-layer="2070" to-port="0" />
		<edge from-layer="2069" from-port="0" to-layer="2070" to-port="1" />
		<edge from-layer="2070" from-port="2" to-layer="2080" to-port="0" />
		<edge from-layer="2071" from-port="0" to-layer="2073" to-port="1" />
		<edge from-layer="2072" from-port="0" to-layer="2073" to-port="2" />
		<edge from-layer="2073" from-port="3" to-layer="2074" to-port="0" />
		<edge from-layer="2074" from-port="1" to-layer="2076" to-port="0" />
		<edge from-layer="2075" from-port="0" to-layer="2076" to-port="1" />
		<edge from-layer="2076" from-port="2" to-layer="2077" to-port="0" />
		<edge from-layer="2077" from-port="1" to-layer="2079" to-port="0" />
		<edge from-layer="2078" from-port="0" to-layer="2079" to-port="1" />
		<edge from-layer="2079" from-port="2" to-layer="2080" to-port="1" />
		<edge from-layer="2080" from-port="2" to-layer="2081" to-port="0" />
		<edge from-layer="2081" from-port="1" to-layer="2082" to-port="1" />
		<edge from-layer="2082" from-port="2" to-layer="2083" to-port="0" />
		<edge from-layer="2082" from-port="2" to-layer="2088" to-port="1" />
		<edge from-layer="2083" from-port="1" to-layer="2085" to-port="0" />
		<edge from-layer="2084" from-port="1" to-layer="2085" to-port="1" />
		<edge from-layer="2085" from-port="2" to-layer="2087" to-port="0" />
		<edge from-layer="2086" from-port="0" to-layer="2087" to-port="1" />
		<edge from-layer="2087" from-port="2" to-layer="2088" to-port="2" />
		<edge from-layer="2088" from-port="3" to-layer="2089" to-port="1" />
		<edge from-layer="2089" from-port="2" to-layer="2090" to-port="0" />
		<edge from-layer="2090" from-port="1" to-layer="2093" to-port="0" />
		<edge from-layer="2090" from-port="1" to-layer="2104" to-port="1" />
		<edge from-layer="2091" from-port="0" to-layer="2092" to-port="0" />
		<edge from-layer="2092" from-port="1" to-layer="2093" to-port="1" />
		<edge from-layer="2093" from-port="2" to-layer="2096" to-port="0" />
		<edge from-layer="2094" from-port="0" to-layer="2095" to-port="0" />
		<edge from-layer="2095" from-port="1" to-layer="2096" to-port="1" />
		<edge from-layer="2096" from-port="2" to-layer="2097" to-port="0" />
		<edge from-layer="2097" from-port="1" to-layer="2100" to-port="0" />
		<edge from-layer="2098" from-port="0" to-layer="2099" to-port="0" />
		<edge from-layer="2099" from-port="1" to-layer="2100" to-port="1" />
		<edge from-layer="2100" from-port="2" to-layer="2103" to-port="0" />
		<edge from-layer="2101" from-port="0" to-layer="2102" to-port="0" />
		<edge from-layer="2102" from-port="1" to-layer="2103" to-port="1" />
		<edge from-layer="2103" from-port="2" to-layer="2104" to-port="0" />
		<edge from-layer="2104" from-port="2" to-layer="2105" to-port="0" />
		<edge from-layer="2105" from-port="1" to-layer="2108" to-port="0" />
		<edge from-layer="2105" from-port="1" to-layer="2119" to-port="1" />
		<edge from-layer="2106" from-port="0" to-layer="2107" to-port="0" />
		<edge from-layer="2107" from-port="1" to-layer="2108" to-port="1" />
		<edge from-layer="2108" from-port="2" to-layer="2111" to-port="0" />
		<edge from-layer="2109" from-port="0" to-layer="2110" to-port="0" />
		<edge from-layer="2110" from-port="1" to-layer="2111" to-port="1" />
		<edge from-layer="2111" from-port="2" to-layer="2112" to-port="0" />
		<edge from-layer="2112" from-port="1" to-layer="2115" to-port="0" />
		<edge from-layer="2113" from-port="0" to-layer="2114" to-port="0" />
		<edge from-layer="2114" from-port="1" to-layer="2115" to-port="1" />
		<edge from-layer="2115" from-port="2" to-layer="2118" to-port="0" />
		<edge from-layer="2116" from-port="0" to-layer="2117" to-port="0" />
		<edge from-layer="2117" from-port="1" to-layer="2118" to-port="1" />
		<edge from-layer="2118" from-port="2" to-layer="2119" to-port="0" />
		<edge from-layer="2119" from-port="2" to-layer="2120" to-port="0" />
		<edge from-layer="2120" from-port="1" to-layer="2123" to-port="0" />
		<edge from-layer="2121" from-port="0" to-layer="2122" to-port="0" />
		<edge from-layer="2122" from-port="1" to-layer="2123" to-port="1" />
		<edge from-layer="2123" from-port="2" to-layer="2126" to-port="0" />
		<edge from-layer="2124" from-port="0" to-layer="2125" to-port="0" />
		<edge from-layer="2125" from-port="1" to-layer="2126" to-port="1" />
		<edge from-layer="2126" from-port="2" to-layer="2127" to-port="0" />
		<edge from-layer="2126" from-port="2" to-layer="2158" to-port="0" />
		<edge from-layer="2127" from-port="1" to-layer="2134" to-port="0" />
		<edge from-layer="2127" from-port="1" to-layer="2131" to-port="0" />
		<edge from-layer="2127" from-port="1" to-layer="2143" to-port="0" />
		<edge from-layer="2127" from-port="1" to-layer="2154" to-port="0" />
		<edge from-layer="2128" from-port="0" to-layer="2131" to-port="1" />
		<edge from-layer="2129" from-port="0" to-layer="2131" to-port="2" />
		<edge from-layer="2130" from-port="0" to-layer="2131" to-port="3" />
		<edge from-layer="2131" from-port="4" to-layer="2152" to-port="0" />
		<edge from-layer="2132" from-port="0" to-layer="2134" to-port="1" />
		<edge from-layer="2133" from-port="0" to-layer="2134" to-port="2" />
		<edge from-layer="2134" from-port="3" to-layer="2135" to-port="0" />
		<edge from-layer="2135" from-port="1" to-layer="2137" to-port="0" />
		<edge from-layer="2136" from-port="0" to-layer="2137" to-port="1" />
		<edge from-layer="2137" from-port="2" to-layer="2138" to-port="0" />
		<edge from-layer="2138" from-port="1" to-layer="2140" to-port="0" />
		<edge from-layer="2139" from-port="0" to-layer="2140" to-port="1" />
		<edge from-layer="2140" from-port="2" to-layer="2150" to-port="0" />
		<edge from-layer="2141" from-port="0" to-layer="2143" to-port="1" />
		<edge from-layer="2142" from-port="0" to-layer="2143" to-port="2" />
		<edge from-layer="2143" from-port="3" to-layer="2144" to-port="0" />
		<edge from-layer="2144" from-port="1" to-layer="2146" to-port="0" />
		<edge from-layer="2145" from-port="0" to-layer="2146" to-port="1" />
		<edge from-layer="2146" from-port="2" to-layer="2147" to-port="0" />
		<edge from-layer="2147" from-port="1" to-layer="2149" to-port="0" />
		<edge from-layer="2148" from-port="0" to-layer="2149" to-port="1" />
		<edge from-layer="2149" from-port="2" to-layer="2150" to-port="1" />
		<edge from-layer="2150" from-port="2" to-layer="2151" to-port="0" />
		<edge from-layer="2151" from-port="1" to-layer="2152" to-port="1" />
		<edge from-layer="2152" from-port="2" to-layer="2153" to-port="0" />
		<edge from-layer="2152" from-port="2" to-layer="2158" to-port="1" />
		<edge from-layer="2153" from-port="1" to-layer="2155" to-port="0" />
		<edge from-layer="2154" from-port="1" to-layer="2155" to-port="1" />
		<edge from-layer="2155" from-port="2" to-layer="2157" to-port="0" />
		<edge from-layer="2156" from-port="0" to-layer="2157" to-port="1" />
		<edge from-layer="2157" from-port="2" to-layer="2158" to-port="2" />
		<edge from-layer="2158" from-port="3" to-layer="2159" to-port="1" />
		<edge from-layer="2159" from-port="2" to-layer="2271" to-port="0" />
		<edge from-layer="2160" from-port="0" to-layer="2161" to-port="0" />
		<edge from-layer="2161" from-port="1" to-layer="2162" to-port="1" />
		<edge from-layer="2162" from-port="2" to-layer="2165" to-port="0" />
		<edge from-layer="2163" from-port="0" to-layer="2164" to-port="0" />
		<edge from-layer="2164" from-port="1" to-layer="2165" to-port="1" />
		<edge from-layer="2165" from-port="2" to-layer="2166" to-port="0" />
		<edge from-layer="2166" from-port="1" to-layer="2169" to-port="0" />
		<edge from-layer="2167" from-port="0" to-layer="2168" to-port="0" />
		<edge from-layer="2168" from-port="1" to-layer="2169" to-port="1" />
		<edge from-layer="2169" from-port="2" to-layer="2172" to-port="0" />
		<edge from-layer="2170" from-port="0" to-layer="2171" to-port="0" />
		<edge from-layer="2171" from-port="1" to-layer="2172" to-port="1" />
		<edge from-layer="2172" from-port="2" to-layer="2173" to-port="0" />
		<edge from-layer="2173" from-port="1" to-layer="2176" to-port="0" />
		<edge from-layer="2174" from-port="0" to-layer="2175" to-port="0" />
		<edge from-layer="2175" from-port="1" to-layer="2176" to-port="1" />
		<edge from-layer="2176" from-port="2" to-layer="2179" to-port="0" />
		<edge from-layer="2177" from-port="0" to-layer="2178" to-port="0" />
		<edge from-layer="2178" from-port="1" to-layer="2179" to-port="1" />
		<edge from-layer="2179" from-port="2" to-layer="2193" to-port="0" />
		<edge from-layer="2180" from-port="0" to-layer="2181" to-port="0" />
		<edge from-layer="2181" from-port="1" to-layer="2182" to-port="1" />
		<edge from-layer="2182" from-port="2" to-layer="2185" to-port="0" />
		<edge from-layer="2183" from-port="0" to-layer="2184" to-port="0" />
		<edge from-layer="2184" from-port="1" to-layer="2185" to-port="1" />
		<edge from-layer="2185" from-port="2" to-layer="2186" to-port="0" />
		<edge from-layer="2186" from-port="1" to-layer="2189" to-port="0" />
		<edge from-layer="2187" from-port="0" to-layer="2188" to-port="0" />
		<edge from-layer="2188" from-port="1" to-layer="2189" to-port="1" />
		<edge from-layer="2189" from-port="2" to-layer="2192" to-port="0" />
		<edge from-layer="2190" from-port="0" to-layer="2191" to-port="0" />
		<edge from-layer="2191" from-port="1" to-layer="2192" to-port="1" />
		<edge from-layer="2192" from-port="2" to-layer="2193" to-port="1" />
		<edge from-layer="2193" from-port="2" to-layer="2200" to-port="0" />
		<edge from-layer="2194" from-port="0" to-layer="2195" to-port="0" />
		<edge from-layer="2195" from-port="1" to-layer="2196" to-port="1" />
		<edge from-layer="2196" from-port="2" to-layer="2199" to-port="0" />
		<edge from-layer="2197" from-port="0" to-layer="2198" to-port="0" />
		<edge from-layer="2198" from-port="1" to-layer="2199" to-port="1" />
		<edge from-layer="2199" from-port="2" to-layer="2200" to-port="1" />
		<edge from-layer="2200" from-port="2" to-layer="2201" to-port="0" />
		<edge from-layer="2201" from-port="2" to-layer="2202" to-port="0" />
		<edge from-layer="2202" from-port="1" to-layer="2205" to-port="0" />
		<edge from-layer="2202" from-port="1" to-layer="2216" to-port="1" />
		<edge from-layer="2203" from-port="0" to-layer="2204" to-port="0" />
		<edge from-layer="2204" from-port="1" to-layer="2205" to-port="1" />
		<edge from-layer="2205" from-port="2" to-layer="2208" to-port="0" />
		<edge from-layer="2206" from-port="0" to-layer="2207" to-port="0" />
		<edge from-layer="2207" from-port="1" to-layer="2208" to-port="1" />
		<edge from-layer="2208" from-port="2" to-layer="2209" to-port="0" />
		<edge from-layer="2209" from-port="1" to-layer="2212" to-port="0" />
		<edge from-layer="2210" from-port="0" to-layer="2211" to-port="0" />
		<edge from-layer="2211" from-port="1" to-layer="2212" to-port="1" />
		<edge from-layer="2212" from-port="2" to-layer="2215" to-port="0" />
		<edge from-layer="2213" from-port="0" to-layer="2214" to-port="0" />
		<edge from-layer="2214" from-port="1" to-layer="2215" to-port="1" />
		<edge from-layer="2215" from-port="2" to-layer="2216" to-port="0" />
		<edge from-layer="2216" from-port="2" to-layer="2217" to-port="0" />
		<edge from-layer="2217" from-port="1" to-layer="2231" to-port="1" />
		<edge from-layer="2217" from-port="1" to-layer="2220" to-port="0" />
		<edge from-layer="2218" from-port="0" to-layer="2219" to-port="0" />
		<edge from-layer="2219" from-port="1" to-layer="2220" to-port="1" />
		<edge from-layer="2220" from-port="2" to-layer="2223" to-port="0" />
		<edge from-layer="2221" from-port="0" to-layer="2222" to-port="0" />
		<edge from-layer="2222" from-port="1" to-layer="2223" to-port="1" />
		<edge from-layer="2223" from-port="2" to-layer="2224" to-port="0" />
		<edge from-layer="2224" from-port="1" to-layer="2227" to-port="0" />
		<edge from-layer="2225" from-port="0" to-layer="2226" to-port="0" />
		<edge from-layer="2226" from-port="1" to-layer="2227" to-port="1" />
		<edge from-layer="2227" from-port="2" to-layer="2230" to-port="0" />
		<edge from-layer="2228" from-port="0" to-layer="2229" to-port="0" />
		<edge from-layer="2229" from-port="1" to-layer="2230" to-port="1" />
		<edge from-layer="2230" from-port="2" to-layer="2231" to-port="0" />
		<edge from-layer="2231" from-port="2" to-layer="2232" to-port="0" />
		<edge from-layer="2232" from-port="1" to-layer="2235" to-port="0" />
		<edge from-layer="2233" from-port="0" to-layer="2234" to-port="0" />
		<edge from-layer="2234" from-port="1" to-layer="2235" to-port="1" />
		<edge from-layer="2235" from-port="2" to-layer="2238" to-port="0" />
		<edge from-layer="2236" from-port="0" to-layer="2237" to-port="0" />
		<edge from-layer="2237" from-port="1" to-layer="2238" to-port="1" />
		<edge from-layer="2238" from-port="2" to-layer="2239" to-port="0" />
		<edge from-layer="2238" from-port="2" to-layer="2270" to-port="0" />
		<edge from-layer="2239" from-port="1" to-layer="2266" to-port="0" />
		<edge from-layer="2239" from-port="1" to-layer="2255" to-port="0" />
		<edge from-layer="2239" from-port="1" to-layer="2243" to-port="0" />
		<edge from-layer="2239" from-port="1" to-layer="2246" to-port="0" />
		<edge from-layer="2240" from-port="0" to-layer="2243" to-port="1" />
		<edge from-layer="2241" from-port="0" to-layer="2243" to-port="2" />
		<edge from-layer="2242" from-port="0" to-layer="2243" to-port="3" />
		<edge from-layer="2243" from-port="4" to-layer="2264" to-port="0" />
		<edge from-layer="2244" from-port="0" to-layer="2246" to-port="1" />
		<edge from-layer="2245" from-port="0" to-layer="2246" to-port="2" />
		<edge from-layer="2246" from-port="3" to-layer="2247" to-port="0" />
		<edge from-layer="2247" from-port="1" to-layer="2249" to-port="0" />
		<edge from-layer="2248" from-port="0" to-layer="2249" to-port="1" />
		<edge from-layer="2249" from-port="2" to-layer="2250" to-port="0" />
		<edge from-layer="2250" from-port="1" to-layer="2252" to-port="0" />
		<edge from-layer="2251" from-port="0" to-layer="2252" to-port="1" />
		<edge from-layer="2252" from-port="2" to-layer="2262" to-port="0" />
		<edge from-layer="2253" from-port="0" to-layer="2255" to-port="1" />
		<edge from-layer="2254" from-port="0" to-layer="2255" to-port="2" />
		<edge from-layer="2255" from-port="3" to-layer="2256" to-port="0" />
		<edge from-layer="2256" from-port="1" to-layer="2258" to-port="0" />
		<edge from-layer="2257" from-port="0" to-layer="2258" to-port="1" />
		<edge from-layer="2258" from-port="2" to-layer="2259" to-port="0" />
		<edge from-layer="2259" from-port="1" to-layer="2261" to-port="0" />
		<edge from-layer="2260" from-port="0" to-layer="2261" to-port="1" />
		<edge from-layer="2261" from-port="2" to-layer="2262" to-port="1" />
		<edge from-layer="2262" from-port="2" to-layer="2263" to-port="0" />
		<edge from-layer="2263" from-port="1" to-layer="2264" to-port="1" />
		<edge from-layer="2264" from-port="2" to-layer="2270" to-port="1" />
		<edge from-layer="2264" from-port="2" to-layer="2265" to-port="0" />
		<edge from-layer="2265" from-port="1" to-layer="2267" to-port="0" />
		<edge from-layer="2266" from-port="1" to-layer="2267" to-port="1" />
		<edge from-layer="2267" from-port="2" to-layer="2269" to-port="0" />
		<edge from-layer="2268" from-port="0" to-layer="2269" to-port="1" />
		<edge from-layer="2269" from-port="2" to-layer="2270" to-port="2" />
		<edge from-layer="2270" from-port="3" to-layer="2271" to-port="1" />
		<edge from-layer="2271" from-port="2" to-layer="2272" to-port="0" />
		<edge from-layer="2272" from-port="1" to-layer="2275" to-port="0" />
		<edge from-layer="2272" from-port="1" to-layer="2291" to-port="0" />
		<edge from-layer="2272" from-port="1" to-layer="2286" to-port="0" />
		<edge from-layer="2273" from-port="0" to-layer="2274" to-port="0" />
		<edge from-layer="2274" from-port="1" to-layer="2275" to-port="1" />
		<edge from-layer="2275" from-port="2" to-layer="2278" to-port="0" />
		<edge from-layer="2276" from-port="0" to-layer="2277" to-port="0" />
		<edge from-layer="2277" from-port="1" to-layer="2278" to-port="1" />
		<edge from-layer="2278" from-port="2" to-layer="2279" to-port="0" />
		<edge from-layer="2278" from-port="2" to-layer="2330" to-port="0" />
		<edge from-layer="2278" from-port="2" to-layer="2290" to-port="1" />
		<edge from-layer="2279" from-port="1" to-layer="2283" to-port="0" />
		<edge from-layer="2279" from-port="1" to-layer="2326" to-port="0" />
		<edge from-layer="2280" from-port="0" to-layer="2283" to-port="1" />
		<edge from-layer="2281" from-port="0" to-layer="2283" to-port="2" />
		<edge from-layer="2282" from-port="0" to-layer="2283" to-port="3" />
		<edge from-layer="2283" from-port="4" to-layer="2324" to-port="0" />
		<edge from-layer="2284" from-port="0" to-layer="2285" to-port="0" />
		<edge from-layer="2285" from-port="1" to-layer="2286" to-port="1" />
		<edge from-layer="2286" from-port="2" to-layer="2289" to-port="0" />
		<edge from-layer="2287" from-port="0" to-layer="2288" to-port="0" />
		<edge from-layer="2288" from-port="1" to-layer="2289" to-port="1" />
		<edge from-layer="2289" from-port="2" to-layer="2290" to-port="0" />
		<edge from-layer="2289" from-port="2" to-layer="2348" to-port="0" />
		<edge from-layer="2289" from-port="2" to-layer="2334" to-port="0" />
		<edge from-layer="2290" from-port="2" to-layer="2291" to-port="1" />
		<edge from-layer="2291" from-port="2" to-layer="2294" to-port="0" />
		<edge from-layer="2292" from-port="0" to-layer="2293" to-port="0" />
		<edge from-layer="2293" from-port="1" to-layer="2294" to-port="1" />
		<edge from-layer="2294" from-port="2" to-layer="2297" to-port="0" />
		<edge from-layer="2295" from-port="0" to-layer="2296" to-port="0" />
		<edge from-layer="2296" from-port="1" to-layer="2297" to-port="1" />
		<edge from-layer="2297" from-port="2" to-layer="2298" to-port="0" />
		<edge from-layer="2298" from-port="1" to-layer="2301" to-port="0" />
		<edge from-layer="2298" from-port="1" to-layer="2312" to-port="1" />
		<edge from-layer="2299" from-port="0" to-layer="2300" to-port="0" />
		<edge from-layer="2300" from-port="1" to-layer="2301" to-port="1" />
		<edge from-layer="2301" from-port="2" to-layer="2304" to-port="0" />
		<edge from-layer="2302" from-port="0" to-layer="2303" to-port="0" />
		<edge from-layer="2303" from-port="1" to-layer="2304" to-port="1" />
		<edge from-layer="2304" from-port="2" to-layer="2305" to-port="0" />
		<edge from-layer="2305" from-port="1" to-layer="2308" to-port="0" />
		<edge from-layer="2306" from-port="0" to-layer="2307" to-port="0" />
		<edge from-layer="2307" from-port="1" to-layer="2308" to-port="1" />
		<edge from-layer="2308" from-port="2" to-layer="2311" to-port="0" />
		<edge from-layer="2309" from-port="0" to-layer="2310" to-port="0" />
		<edge from-layer="2310" from-port="1" to-layer="2311" to-port="1" />
		<edge from-layer="2311" from-port="2" to-layer="2312" to-port="0" />
		<edge from-layer="2312" from-port="2" to-layer="2313" to-port="0" />
		<edge from-layer="2313" from-port="1" to-layer="2316" to-port="0" />
		<edge from-layer="2314" from-port="0" to-layer="2315" to-port="0" />
		<edge from-layer="2315" from-port="1" to-layer="2316" to-port="1" />
		<edge from-layer="2316" from-port="2" to-layer="2319" to-port="0" />
		<edge from-layer="2317" from-port="0" to-layer="2318" to-port="0" />
		<edge from-layer="2318" from-port="1" to-layer="2319" to-port="1" />
		<edge from-layer="2319" from-port="2" to-layer="2349" to-port="1" />
		<edge from-layer="2319" from-port="2" to-layer="2320" to-port="0" />
		<edge from-layer="2320" from-port="1" to-layer="2323" to-port="0" />
		<edge from-layer="2320" from-port="1" to-layer="2341" to-port="0" />
		<edge from-layer="2321" from-port="0" to-layer="2323" to-port="1" />
		<edge from-layer="2322" from-port="0" to-layer="2323" to-port="2" />
		<edge from-layer="2323" from-port="3" to-layer="2324" to-port="1" />
		<edge from-layer="2324" from-port="2" to-layer="2325" to-port="0" />
		<edge from-layer="2324" from-port="2" to-layer="2330" to-port="1" />
		<edge from-layer="2325" from-port="1" to-layer="2327" to-port="0" />
		<edge from-layer="2326" from-port="1" to-layer="2327" to-port="1" />
		<edge from-layer="2327" from-port="2" to-layer="2329" to-port="0" />
		<edge from-layer="2328" from-port="0" to-layer="2329" to-port="1" />
		<edge from-layer="2329" from-port="2" to-layer="2330" to-port="2" />
		<edge from-layer="2330" from-port="3" to-layer="2332" to-port="0" />
		<edge from-layer="2331" from-port="0" to-layer="2332" to-port="1" />
		<edge from-layer="2332" from-port="2" to-layer="2333" to-port="0" />
		<edge from-layer="2334" from-port="1" to-layer="2344" to-port="0" />
		<edge from-layer="2334" from-port="1" to-layer="2338" to-port="0" />
		<edge from-layer="2335" from-port="0" to-layer="2338" to-port="1" />
		<edge from-layer="2336" from-port="0" to-layer="2338" to-port="2" />
		<edge from-layer="2337" from-port="0" to-layer="2338" to-port="3" />
		<edge from-layer="2338" from-port="4" to-layer="2342" to-port="0" />
		<edge from-layer="2339" from-port="0" to-layer="2341" to-port="1" />
		<edge from-layer="2340" from-port="0" to-layer="2341" to-port="2" />
		<edge from-layer="2341" from-port="3" to-layer="2342" to-port="1" />
		<edge from-layer="2342" from-port="2" to-layer="2343" to-port="0" />
		<edge from-layer="2342" from-port="2" to-layer="2348" to-port="1" />
		<edge from-layer="2343" from-port="1" to-layer="2345" to-port="0" />
		<edge from-layer="2344" from-port="1" to-layer="2345" to-port="1" />
		<edge from-layer="2345" from-port="2" to-layer="2347" to-port="0" />
		<edge from-layer="2346" from-port="0" to-layer="2347" to-port="1" />
		<edge from-layer="2347" from-port="2" to-layer="2348" to-port="2" />
		<edge from-layer="2348" from-port="3" to-layer="2349" to-port="0" />
		<edge from-layer="2349" from-port="2" to-layer="2352" to-port="0" />
		<edge from-layer="2350" from-port="0" to-layer="2351" to-port="0" />
		<edge from-layer="2351" from-port="1" to-layer="2352" to-port="1" />
		<edge from-layer="2352" from-port="2" to-layer="2353" to-port="0" />
		<edge from-layer="2353" from-port="1" to-layer="2354" to-port="0" />
		<edge from-layer="2353" from-port="1" to-layer="2355" to-port="1" />
		<edge from-layer="2353" from-port="1" to-layer="2363" to-port="0" />
		<edge from-layer="2354" from-port="1" to-layer="2355" to-port="0" />
		<edge from-layer="2355" from-port="2" to-layer="2356" to-port="0" />
		<edge from-layer="2356" from-port="1" to-layer="2359" to-port="0" />
		<edge from-layer="2357" from-port="0" to-layer="2358" to-port="0" />
		<edge from-layer="2358" from-port="1" to-layer="2359" to-port="1" />
		<edge from-layer="2359" from-port="2" to-layer="2362" to-port="0" />
		<edge from-layer="2360" from-port="0" to-layer="2361" to-port="0" />
		<edge from-layer="2361" from-port="1" to-layer="2362" to-port="1" />
		<edge from-layer="2362" from-port="2" to-layer="2363" to-port="1" />
		<edge from-layer="2363" from-port="2" to-layer="2364" to-port="0" />
	</edges>
	<rt_info>
		<MO_version value="custom_HEAD_3b86f12c37fa7b35388be509ccabf6c7423268b7" />
		<Runtime_version value="2022.3.0-8987-3b86f12c37f-HEAD" />
		<conversion_parameters>
			<data_type value="FP16" />
			<framework value="onnx" />
			<input value="image" />
			<input_model value="DIR/human-pose-estimation-0005.onnx" />
			<input_shape value="[1,3,288,288]" />
			<layout value="image(nchw)" />
			<mean_values value="image[123.675,116.28,103.53]" />
			<model_name value="human-pose-estimation-0005" />
			<output value="heatmaps,embeddings" />
			<output_dir value="DIR" />
			<reverse_input_channels value="True" />
			<scale_values value="image[58.395,57.12,57.375]" />
		</conversion_parameters>
		<legacy_frontend value="False" />
	</rt_info>
</net>
